best_model.pth (torch, 677922 bytes, 54 tensors)

embedding_module.data_embed.weight f4 [128, 15]
0.087575726 -0.23420104 0.08993448 -0.21034205 0.25383487 -0.06159611 0.08898085 0.17341165
0.18404858 -0.22048913 -0.1185475 0.059543684 0.1683405 -0.16085643 0.16326529 -0.15271813
0.14698234 -0.06999946 0.1116432 -0.019023389 0.19422524 0.06757211 0.21512961 0.045598302
-0.06896804 -0.14603786 0.13397884 0.19834198 -0.046809983 0.044844646 -0.21174282 -0.041822765
-0.11649284 0.049842224 0.015465057 0.19394356 -0.05079996 -0.25453922 0.25171992 0.22422025
-0.19362213 -0.0772836 0.12718134 -0.029379226 -0.14150676 -0.020926718 0.23802139 0.1829658
-0.0015775913 0.049361255 0.20792784 0.21191654 -0.13691796 0.16532902 0.20050174 0.19885872
0.25030547 0.073952705 0.15885378 0.2309232 -0.23078594 -0.1701847 -0.0053735673 -0.028087545
-0.02562546 0.22764508 0.047515873 -0.0027709303 -0.14947087 -0.1035117 -0.024467545 0.099058956
-0.026794918 0.21446192 -0.24218218 0.16059107 -0.18250525 -0.035610013 0.03304909 0.16187213
-0.063760854 -0.2442679 0.14004642 0.11076971 -0.23934235 0.09056346 -0.083686896 0.1413213
-0.062145397 0.034355238 -0.10835119 0.11109384 -0.14055187 -0.25576094 0.019686544 -0.031179274
0.24429499 -0.19403389 -0.045778256 0.21736827 -0.15366271 -0.03587527 0.07896312 0.2455886
0.18179047 0.2468113 -0.14156055 0.08382033 0.23695578 -0.14112064 -0.21291131 0.23554848
-0.06744826 0.21395919 0.16291961 0.08093429 0.14655969 -0.12867957 0.10120195 0.15076834
-0.19701292 0.12540288 -0.1437602 -0.002339358 -0.16839162 0.17116888 0.17621121 0.17408352
-0.054556143 0.030198086 -0.15938878 0.108196095 -0.1994201 0.14980173 -0.1982227 0.21427247
-0.16162722 0.14002281 -0.11204783 0.097593576 0.20192836 0.09335187 0.19709319 -0.061849404
0.09890248 0.10837794 -0.14343868 -0.25186914 0.22353305 0.10949612 -0.0071061496 -0.19485201
-0.2096921 0.032157745 0.12585045 0.047222976 -0.14711861 0.15043265 0.1467419 0.14523649
0.16635548 -0.10632401 0.13915086 0.050635614 0.09960963 0.22470433 -0.13253532 0.0754555
-0.0022097128 0.24478504 -0.2098472 0.22172058 -0.21244957 0.14150283 -0.056912664 -0.17685944
-0.17694671 0.22398712 0.2198498 0.15250851 0.06046418 0.15789196 -0.047955416 0.085798375
-0.07818385 0.18981342 -0.17956224 -0.044867072 0.014590446 -0.00060796895 0.16586514 -0.15191774
-0.0095838355 -0.23160808 -0.15779021 0.13501038 0.06357767 -0.22503975 -0.21094641 0.0897004
-0.11667657 -0.18810955 0.13036038 0.1887105 0.092328966 -0.26229104 -0.13790826 0.13368407
0.15320967 0.15102008 0.19700702 0.21247518 -0.23005155 0.24737169 0.12597792 -0.0399532
0.014466504 0.22368768 0.15068042 -0.22333317 0.025561027 0.076388 0.101936616 0.1899244
0.23532829 -0.21110821 0.21192892 0.18492733 0.21871525 0.16380177 -0.26374 -0.037128378
-0.1217726 -0.23665823 0.22764742 0.14848815 0.2126552 -0.09736375 -0.13760133 0.08537859
0.07450855 -0.028514389 -0.016963037 -0.13143866 -0.019451568 -0.13137324 -0.13200118 0.09399034
-0.23816419 0.23935105 0.20156522 0.25512686 0.10007942 -0.07997878 -0.16734251 -0.14506607
00000000: e75a b33d 66d2 6fbe 922f b83d e863 57be
00000010: a5f6 813e 344c 7cbd 983b b63d d392 313e
00000020: 3b77 3c3e e7c7 61be 08c9 f2bd 14e4 733d
00000030: 7461 2c3e 8cb7 24be 042f 273e 2462 1cbe
00000040: 8a82 163e e05b 8fbd 31a5 e43d f0d6 9bbc
00000050: fbe2 463e 3f63 8a3d f04a 5c3e 49c5 3a3d
00000060: 1e3f 8dbd f38a 15be c031 093e 291a 4b3e
00000070: d3bb 3fbd 05af 373d 1cd3 58be 594e 2bbd
00000080: cc93 eebd 5c27 4c3d 2761 7d3c 2499 463e
00000090: 9e13 50bd f752 82be 6fe1 803e fe99 653e
000000a0: e144 46be dd46 9ebd d33b 023e b4ac f0bc
000000b0: 26e7 10be 826e abbc e1bb 733e 635b 3b3e
000000c0: 2ec7 ceba 072f 4a3d 09eb 543e a600 593e
000000d0: 3934 0cbe 034c 293e 5450 4d3e 9fa1 4b3e
000000e0: 0a28 803e 8474 973d 91aa 223e 2277 6c3e
000000f0: 2653 6cbe e644 2ebe c014 b0bb da17 e6bc
00000100: 7cec d1bc cb1b 693e 01a0 423d 7f98 35bb
00000110: e40e 19be f1fd d3bd 2970 c8bc 6cdf ca3d
00000120: 0481 dbbc e89b 5b3e 9bfe 77be fc71 243e
00000130: a8e2 3abe cedb 11bd 7c5e 073d cfc1 253e
00000140: 0d95 82bd 5d21 7abe 5468 0f3e 3bdb e23d
00000150: 2916 75be 5679 b93d 0964 abbd 88b6 103e
00000160: 2c8c 7ebd 14b8 0c3d 3be7 ddbd 2b85 e33d
00000170: d4ec 0fbe 19f3 82be ad45 a13c ad6b ffbc
00000180: 7728 7a3e d2b0 46be fb81 3bbd ca95 5e3e
00000190: c259 1dbe f2f1 12bd 6bb7 a13d 947b 7b3e
000001a0: 4827 3a3e 1abc 7c3e 40f5 10be fea9 ab3d
000001b0: 89a4 723e ee81 10be 6c05 5abe 9f33 713e
000001c0: 5022 8abd 1e18 5b3e 66d4 263e e1c0 a53d
000001d0: be13 163e 94c4 03be f842 cf3d 0463 1a3e
000001e0: c1bd 49be 9d69 003e e035 13be ea4f 19bb
000001f0: da6e 2cbe e546 2f3e b670 343e f342 323e
00000200: 4376 5fbd fa61 f73c d036 23be ea95 dd3d
00000210: c834 4cbe a065 193e e4fa 4abe 3e6a 5b3e
00000220: 9b81 25be 2462 0f3e 5579 e5bd 24df c73d
00000230: 4fc6 4e3e 442f bf3d ccd2 493e cd55 7dbd
00000240: 628d ca3d 41f5 dd3d 97e1 12be fef4 80be
00000250: d9e5 643e 803f e03d b4da e8bb 4987 47be
00000260: 87b9 56be d7b7 033d f1de 003e e16c 413d
00000270: 43a6 16be 040b 1a3e 8243 163e e0b8 143e
00000280: 1759 2a3e 67c0 d9bd 907d 0e3e 4a67 4f3d
00000290: 2200 cc3d e418 663e 57b7 07be 6a88 9a3d
000002a0: d4d0 10bb eea8 7a3e 2fe2 56be b80a 633e
000002b0: 618c 59be 1ee6 103e 411d 69bd a41a 35be
000002c0: 8531 35be e15c 653e 4e20 613e 312b 1c3e
000002d0: 4aa9 773d 6eae 213e e66c 44bd 0fb7 af3d
000002e0: db1e a0bd 735e 423e 2adf 37be 89c6 37bd
000002f0: c40c 6f3c 1b60 1fba 8dd8 293e 5390 1bbe
00000300: 8505 1dbc ab2a 6dbe c293 21be 2940 0a3e
00000310: 0235 823d d270 66be 5602 58be d8b4 b73d
00000320: 20f4 eebd ca9f 40be 317d 053e 533d 413e
00000330: f816 bd3d 034b 86be d337 0dbe 7ae4 083e
00000340: ffe2 1c3e 02a5 1a3e 35bc 493e 1893 593e
00000350: a292 6bbe 014f 7d3e 5b00 013e f7a5 23bd
00000360: ea04 6d3c 620e 653e f84b 1a3e 73b1 64be
00000370: 5c65 d13c 5071 9c3d 25c4 d03d 8b7b 423e
00000380: e6f9 703e c02c 58be e503 593e 975d 3d3e
00000390: e4f6 5f3e a7bb 273e ee08 87be ed13 18bd
000003a0: ea63 f9bd 8956 72be 681c 693e 470d 183e
000003b0: 49c2 593e a566 c7bd 5de7 0cbe f8da ae3d
000003c0: f097 983d 0297 e9bc 11f6 8abc db97 06be
000003d0: e558 9fbc b586 06be 512b 07be 027e c03d
000003e0: 50e1 73be 7118 753e 1d67 4e3e fd9f 823e
000003f0: 70f6 cc3d eacb a3bd d65b 2bbe 338c 14be

embedding_module.data_embed.bias f4 [128]
0.22423819 -0.076044336 0.041111577 0.030253816 0.07570142 -0.10543963 0.19862704 -0.07291112
-0.117598705 -0.0068169245 0.17591417 -0.06183675 0.041265983 -0.21931396 0.029544542 0.15551697
-0.1642287 0.03525351 0.18987617 0.030749077 -0.17493314 0.05510307 0.059556708 0.21829632
-0.15601622 0.18269956 0.12547165 0.16307595 0.006233693 0.08839038 -0.11158878 -0.043746248
-0.23274963 0.22511932 -0.087786935 0.20777534 0.079153694 -0.13801566 0.06491055 -0.23701467
0.23764619 0.13081452 0.23543549 0.20171694 0.23275895 -0.12611815 -0.095379785 -0.2581314
-0.034943026 -0.0255219 -0.050780535 0.15828663 0.08159421 -0.09967798 -0.04184605 -0.03732811
0.14976606 -0.06939241 -0.19349311 0.19605401 -0.043480553 -0.23302627 0.25122026 0.09666486
-0.07747125 0.077914804 -0.12564811 0.12861897 -0.059913296 -0.14174491 -0.10640942 -0.086915255
0.09346557 -0.1858257 -0.13970473 -0.040202152 0.14048426 0.08491026 -0.25281525 0.11647307
-0.20679358 0.22220865 0.16643436 0.2256019 -0.15219356 0.052353967 -0.20186615 -0.038951736
-0.026677148 0.1976634 -0.24145366 0.050765637 -0.13546896 -0.22230919 -0.077906914 -0.046766628
-0.060465675 -0.21765588 -0.17743193 -0.14287546 -0.025102777 -0.019910589 0.093122445 -0.25334302
0.25477204 -0.012063976 0.0031631733 -0.17353582 0.083584286 0.03423149 -0.09583385 0.11555652
0.02529464 0.19253202 -0.14627062 -0.081141114 0.19480002 -0.08443313 -0.01267612 -0.14866945
-0.12607343 0.097444855 0.19190922 0.1013834 0.23768757 0.15806583 0.11851907 0.010704547
00000000: b29e 653e 22bd 9bbd 9d64 283d dad6 f73c
00000010: 5909 9b3d bcf0 d7bd e364 4b3e 6d52 95bd
00000020: 97d7 f0bd 8260 dfbb d822 343e 8848 7dbd
00000030: 8506 293d d793 60be 6507 f23c d73f 1f3e
00000040: 912b 28be fc65 103d e66e 423e 7de5 fb3c
00000050: ac21 33be c2b3 613d bcf1 733d 1289 5f3e
00000060: b7c2 1fbe 9815 3b3e a47b 003e 62fd 263e
00000070: 0244 cc3b 0406 b53d a988 e4bd 442f 33bd
00000080: eb55 6ebe ae85 663e a3c9 b3bd 0fc3 543e
00000090: 551b a23d fa53 0dbe d3ef 843d f9b3 72be
000000a0: 8659 733e 3ef4 053e 0016 713e e38e 4e3e
000000b0: 5d58 6e3e 1e25 01be 7a56 c3bd cd29 84be
000000c0: 6b20 0fbd 4e13 d1bc 40ff 4fbd e415 223e
000000d0: dd1a a73d f823 ccbd c466 2bbd 5ce5 18bd
000000e0: 465c 193e 9c1d 8ebd 0f23 46be 62c2 483e
000000f0: aa18 32bd 709e 6ebe f19f 803e 3af8 c53d
00000100: 3fa9 9ebd cc91 9f3d e6a9 00be b1b4 033e
00000110: a567 75bd 9425 11be 2fed d9bd a000 b2bd
00000120: e06a bf3d 1849 3ebe c20e 0fbe 03ab 24bd
00000130: 1bdb 0f3e 6ee5 ad3d 0071 81be 6f89 ee3d
00000140: b2c1 53be aa8a 633e c56d 2a3e 2f04 673e
00000150: a1d8 1bbe 1d71 563d 00b6 4ebe db8b 1fbd
00000160: 098a dabc 4668 4a3e a13f 77be a1ef 4f3d
00000170: 60b8 0abe 05a5 63be a98d 9fbd 5d8e 3fbd
00000180: dbaa 77bd 2fe1 5ebe b7b0 35be f24d 12be
00000190: 57a4 cdbc 881b a3bc fbb6 be3d 2db6 81be
000001a0: 7b71 823e fca7 45bc 3e4d 4f3b 60b3 31be
000001b0: 3d2e ab3d 5236 0c3d 8a44 c4bd e6a8 ec3d
000001c0: b436 cf3c 1d27 453e f7c7 15be 502d a6bd
000001d0: a879 473e 47eb acbd 80af 4fbc ce3c 18be
000001e0: 6519 01be 2b91 c73d da83 443e 1aa2 cf3d
000001f0: 5f64 733e 02dc 213e 20ba f23d 2062 2f3c

embedding_module.spatial_embed.weight f4 [128, 2]
-0.51016635 -0.60152423 -0.5372475 0.5746761 0.18189432 -0.09095109 0.51077515 -0.49250838
-0.060460888 -0.064609386 -0.10380749 -0.21676199 0.35074392 -0.3017957 0.5841743 -0.47466016
0.16808999 0.7048179 -0.22858056 0.09494728 0.5114051 0.5439992 0.196678 0.014101531
0.50736326 -0.013998933 -0.15020578 -0.5195726 -0.418474 -0.67554533 -0.1868053 -0.59590036
-0.40534103 -0.16024466 -0.63660747 -0.67480016 0.24518386 -0.33335847 0.5000159 0.36229944
-0.18813726 -0.047352985 0.669088 -0.13660473 0.28107327 0.52722037 -0.021678649 0.23007445
0.06851806 0.53688323 0.6403688 0.06937017 -0.13744153 -0.66818845 0.13206422 0.49879518
0.075702645 -0.6690023 -0.3385309 0.35610723 0.3102284 0.4614382 -0.69379276 -0.4861515
-0.21472274 0.4395812 0.04997034 -0.25568494 0.32374343 -0.15475476 0.18043782 -0.090461396
-0.2797831 -0.21664228 0.18574937 -0.3881654 0.50702274 -0.023388913 -0.13236146 0.5544987
0.04838024 -0.54986656 -0.45253468 0.31246552 -0.22688909 -0.60474515 0.16582943 0.69589263
-0.6965225 -0.4684127 -0.33035105 -0.40299514 -0.3438725 -0.010916666 0.5841873 0.0886622
-0.5492471 -0.66712445 0.122740746 -0.143366 -0.50142264 -0.5452779 -0.39721614 0.41792852
-0.6168124 -0.2701475 -0.3946475 -0.60813314 0.61977696 0.13822459 -0.45478344 -0.24869093
0.5478669 0.619188 0.3711007 0.018757924 -0.53214544 0.027685676 0.616788 0.5629702
0.50277436 0.009250137 -0.3530116 0.17541665 0.183409 -0.64129734 0.040189803 -0.63979596
0.3319365 0.29049 -0.56033397 -0.008142561 0.52456474 0.2733033 -0.17171633 0.47485417
-0.40934575 -0.634653 -0.15889104 -0.19673474 0.51301605 0.264438 -0.4836522 0.12099518
-0.05618561 -0.6954343 -0.43105286 -0.68835443 0.29828015 0.286893 0.07208874 -0.70319986
-0.01870427 0.22581626 -0.5147964 -0.2694968 -0.58102334 -0.46045434 0.5467482 0.6713806
-0.19773072 -0.51117146 0.59322923 0.36274406 0.4360688 0.12953274 -0.117976084 -0.21595041
0.3838381 0.11253528 0.48601225 0.43672463 -0.15544806 -0.15272489 -0.34660915 0.6476962
0.5608636 -0.6207654 0.20340988 0.66836107 0.6378113 0.41401058 0.55514526 0.40607372
-0.43234536 -0.5075082 -0.0032784943 0.24445422 -0.60063726 -0.44372883 0.50766784 0.5632862
-0.02109509 -0.6014136 0.38434863 -0.59912133 -0.27362087 -0.12339376 -0.2020525 0.51605177
-0.036656354 -0.13756645 -0.2030529 0.63545394 -0.5661644 0.03019353 -0.16053358 0.36784542
0.10384788 -0.50685155 0.02908913 -0.041532476 -0.6967524 -0.6056533 -0.6744115 -0.115751624
-0.38573137 -0.6463175 0.55803776 0.4453597 0.2873019 -0.12958597 -0.3017225 0.11103532
0.023682177 0.64883 -0.12592743 0.33922616 0.5849546 0.030732054 0.24453974 -0.059338864
-0.6079988 -0.29550585 -0.5943172 -0.51177466 -0.23635125 0.5693221 0.23504357 0.06790067
0.6614122 -0.008726394 -0.09133993 -0.15267253 -0.47955966 -0.5169653 0.22283691 0.29026753
0.391115 -0.051903196 0.4390745 -0.12971151 -0.6580135 -0.39490527 -0.1272512 -0.4857118
00000000: 439a 02bf 7efd 19bf 0d89 09bf f91d 133f
00000010: 8142 3a3e 9144 babd 29c2 023f 0f2a fcbe
00000020: d6a5 77bd ed51 84bd 0599 d4bd dbf6 5dbe
00000030: b594 b33e f784 9abe 728c 153f a806 f3be
00000040: c81f 2c3e f26e 343f 0611 6abe b873 c23d
00000050: 72eb 023f 8843 0b3f f565 493e 1c0a 673c
00000060: 8fe2 013f c85b 65bc 8bcf 19be b602 05bf
00000070: 3942 d6be 8af0 2cbf e349 3fbe ed8c 18bf
00000080: dc88 cfbe 2d17 24be b5f8 22bf b4bf 2cbf
00000090: 7a11 7b3e f6ad aabe 0b01 003f 507f b93e
000000a0: 0ea7 40be 34f5 41bd 5a49 2b3f 1ce2 0bbe
000000b0: d6e8 8f3e eaf7 063f 6c97 b1bc a398 6b3e
000000c0: 3253 8c3d 2e71 093f 36ef 233f f311 8e3d
000000d0: 79bd 0cbe 660e 2bbf d83b 073e 1562 ff3e
000000e0: fd09 9b3d bc43 2bbf ec53 adbe b053 b63e
000000f0: 42d6 9e3e a141 ec3e 679c 31bf d9e8 f8be
00000100: 47e0 5bbe c910 e13e b3ad 4c3d 23e9 82be
00000110: b3c1 a53e 0878 1ebe b1c4 383e d343 b9bd
00000120: bb3f 8fbe 79d7 5dbe 1535 3e3e 9ebd c6be
00000130: 3ecc 013f 1b9a bfbc c389 07be a0f3 0d3f
00000140: 5c2a 463d 0ec4 0cbf a0b2 e7be 7bfb 9f3e
00000150: 9d55 68be 94d0 1abf 31cf 293e 0526 323f
00000160: 4c4f 32bf cad3 efbe c623 a9be 6155 cebe
00000170: 0e10 b0be d1db 32bc 4d8d 153f 8794 b53d
00000180: 759b 0cbf abc8 2abf 805f fb3d 89ce 12be
00000190: 3c5d 00bf 5597 0bbf ea5f cbbe bafa d53e
000001a0: 6be7 1dbf c650 8abe 3d0f cabe 9dae 1bbf
000001b0: b4a9 1e3f bf8a 0d3e 60d9 e8be d6a8 7ebe
000001c0: 0141 0c3f 1b83 1e3f e900 be3e 38aa 993c
000001d0: af3a 08bf 12cd e23c d2e5 1d3f d11e 103f
000001e0: d2b5 003f e38d 173c f0bd b4be 6ca0 333e
000001f0: 92cf 3b3e 102c 24bf 109e 243d abc9 23bf
00000200: 95f3 a93e 1bbb 943e 0c72 0fbf 6068 05bc
00000210: e049 063f 69ee 8b3e 68d6 2fbe 1620 f33e
00000220: c495 d1be 9e78 22bf 55b4 22be d574 49be
00000230: 0555 033f 6b64 873e 43a1 f7be 52cc f73d
00000240: e222 66bd fb07 32bf f6b2 dcbe ff37 30bf
00000250: 2db8 983e a4e3 923e 43a3 933d e804 34bf
00000260: b239 99bc 613c 673e b2c9 03bf 7cfb 89be
00000270: f2bd 14bf acc0 ebbe b1f7 0b3f 99df 2b3f
00000280: ec79 4abe 22dc 02bf dfdd 173f 97b9 b93e
00000290: 6944 df3e 3ba4 043e 729d f1bd 1b22 5dbe
000002a0: 6d86 c43e e678 e63d 99d6 f83e 5f9a df3e
000002b0: c72d 1fbe ea63 1cbe c176 b1be 6bcf 253f
000002c0: c294 0f3f 7bea 1ebf ae4a 503e b619 2b3f
000002d0: 9a47 233f 32f9 d33e 001e 0e3f e5e8 cf3e
000002e0: 5f5c ddbe 0fec 01bf 02dc 56bb 3552 7a3e
000002f0: 5dc3 19bf 6d30 e3be 85f6 013f 8633 103f
00000300: 9ccf acbc 3ef6 19bf 58c9 c43e 0460 19bf
00000310: 0918 8cbe deb5 fcbd dae6 4ebe f81b 043f
00000320: f924 16bd 38de 0cbe 19ed 4fbe 1cad 223f
00000330: 26f0 10bf 6c58 f73c ea62 24be 3c56 bc3e
00000340: 33ae d43d 06c1 01bf 544c ee3c f51d 2abd
00000350: 5e5e 32bf 180c 1bbf 3ba6 2cbf 300f edbd
00000360: 957e c5be 1075 25bf 90db 0e3f 3006 e43e
00000370: 3c19 933e 2fb2 04be 5f7b 9abe 7c66 e33d
00000380: 2001 c23c b919 263f 1ff3 00be 0daf ad3e
00000390: 96bf 153f cac1 fb3c a068 7a3e 4f0d 73bd
000003a0: cfa5 1bbf 8b4c 97be 2c25 18bf aa03 03bf
000003b0: 1006 72be 18bf 113f 43af 703e 820f 8b3d
000003c0: 4f52 293f 26f9 0ebc 6e10 bbbd 3056 1cbe
000003d0: d888 f5be d757 04bf 5c2f 643e f29d 943e
000003e0: 3a40 c83e 7298 54bd 5fce e03e 18d3 04be
000003f0: 9373 28bf 0631 cabe 234e 02be 38af f8be

embedding_module.spatial_embed.bias f4 [128]
-0.5616865 0.4797094 -0.2874145 0.5510316 0.6366286 0.2873102 -0.039690487 -0.18722537
0.37265086 -0.12795281 -0.19892925 0.40116447 0.53047514 0.45941302 0.4739518 -0.06932291
0.24776992 0.6963928 -0.009346022 -0.10591303 0.30585837 0.09152735 0.25544748 0.04379819
0.10627109 0.014085719 -0.47534636 -0.045422163 -0.66849566 0.5948245 -0.39169246 0.31407723
-0.13822253 -0.23165284 0.4372359 0.41196975 -0.41287848 -0.6090203 -0.40929538 -0.07516103
0.4080638 0.37056914 -0.45555 -0.028460076 -0.60376304 0.43026417 -0.5711336 -0.6754272
0.010551463 0.5317949 0.48556757 -0.6190739 0.554796 -0.6745509 0.26111183 0.5086135
0.32873288 0.087482415 0.6788111 -0.19420652 -0.10423067 -0.5023273 0.3576774 -0.7025401
0.41608652 -0.071089745 -0.35371143 -0.027584406 0.49278626 0.12565163 -0.37546656 -0.32849076
-0.31981108 0.014741461 -0.59821403 -0.4857327 0.65830374 -0.51947916 0.09996181 -0.47543105
0.17552333 0.23634534 -0.15068962 -0.23707439 0.47788885 0.2897917 -0.03148991 0.081151195
-0.6188842 0.51867574 -0.4533295 0.10314039 -0.4621238 -0.6848455 0.5635865 0.545782
-0.61161697 0.6309404 0.48336533 0.09586524 -0.31405005 -0.5351275 -0.66925573 0.04111177
-0.4874249 0.17093542 0.46163952 -0.4321245 0.044978816 -0.4478373 -0.20832191 0.6717899
-0.021934427 0.31353202 0.09411367 -0.42676547 -0.44732764 -0.086884715 -0.06251459 -0.7013947
0.5531798 -0.47229713 0.24184027 0.25556344 -0.43398702 0.0034832032 0.5593895 0.20135629
00000000: b0ca 0fbf 789c f53e fe27 93be 6810 0d3f
00000010: 18fa 223f 531a 933e 7e92 22bd 02b8 3fbe
00000020: 18cc be3e 1006 03be 1cb4 4bbe 6e65 cd3e
00000030: 38cd 073f 2f38 eb3e cfa9 f23e 2bf9 8dbd
00000040: 66b7 7d3e cc46 323f 0f20 19bc eee8 d8bd
00000050: 7899 9c3e b172 bb3d 03ca 823e bb65 333d
00000060: a8a4 d93d cac7 663c 9960 f3be 970c 3abd
00000070: 8822 2bbf 6b46 183f ea8b c8be bbce a03e
00000080: 358a 0dbe 6736 6dbe 62dd df3e b3ed d23e
00000090: cf64 d3be c1e8 1bbf 2a8f d1be 07ee 99bd
000000a0: bded d03e 3dbb bd3e d93d e9be 1b25 e9bc
000000b0: 3790 1abf 964b dc3e d035 12bf cce8 2cbf
000000c0: 0be0 2c3c b623 083f 509c f83e a17b 1ebf
000000d0: 1c07 0e3f 5eaf 2cbf 73b0 853e 7f34 023f
000000e0: ad4f a83e fb29 b33d 90c6 2d3f 13de 46be
000000f0: e476 d5bd 8698 00bf 7e21 b73e abd9 33bf
00000100: 4b09 d53e 8097 91bd aa19 b5be b1f8 e1bc
00000110: 7b4e fc3e d2aa 003e 273d c0be f12f a8be
00000120: 47be a3be 2b86 713c 8e24 19bf f5b1 f8be
00000130: 9886 283f 96fc 04bf c7b8 cc3d b36b f3be
00000140: 63bc 333e 8304 723e 614e 1abe a1c3 72be
00000150: d9ad f43e 945f 943e 90fb 00bd 9932 a63d
00000160: 326f 1ebf efc7 043f ce1a e8be 453b d33d
00000170: 7e9b ecbe 0952 2fbf 3447 103f 5fb8 0b3f
00000180: ee92 1cbf 4f85 213f a97b f73e ff54 c43d
00000190: 2bcb a0be 1efe 08bf 5854 2bbf d164 283d
000001a0: c28f f9be b209 2f3e 045c ec3e 6c3f ddbe
000001b0: b53b 383d ee4a e5be 5752 55be 6cfa 2b3f
000001c0: d4af b3bc 4587 a03e abbe c03d 0181 dabe
000001d0: 2108 e5be 9df0 b1bd a607 80bd 9a8e 33bf
000001e0: 319d 0d3f eed0 f1be faa4 773e 36d9 823e
000001f0: 8c33 debe 7446 643b 2634 0f3f 5830 4e3e

layers.0.linear.weight f4 [128, 128]
-0.06332909 -0.046966534 -0.06401607 0.073795535 0.048584156 -0.059475888 0.07760197 0.0144575285
0.09398538 -0.064088434 0.0033057334 -0.035360612 -0.034990463 -0.043037117 -0.08912204 -0.048692446
0.03723219 -0.010772319 -0.09229478 -0.070159815 -0.07223569 -0.022036243 -0.07412664 0.096478924
-0.06087302 0.03459879 -0.0694438 -0.051287122 0.06223408 0.050482113 -0.074508175 0.045537718
-0.07503665 -0.020882018 0.031179143 -0.039853424 -0.023531407 0.0027626494 0.002946432 0.07617381
-0.078605086 0.06305427 -0.0004434853 0.05391893 -0.026244119 -0.042094834 0.048256304 -0.029067172
-0.057205446 -0.05892908 -0.076879874 -0.026808308 -0.0033257583 -0.002435655 0.012276363 -0.034553673
-0.023868594 0.07230765 -0.030845014 -0.021433212 -0.045644514 0.08004875 -0.04482859 0.016682379
-0.021651067 0.016454224 0.017219909 0.044291176 0.041872658 -0.0912252 0.050557166 -0.094608
-0.087997146 -0.035727084 -0.017792173 -0.019795582 0.0017018004 -0.037093777 -0.062274534 -0.0618402
0.012029435 -0.020631978 -0.043789506 -0.0066599757 0.0026741978 0.08743234 0.043249767 0.06940963
-0.00816489 0.022428434 -0.082934834 -0.054726604 0.014048397 -0.064142585 -0.043049585 0.08757055
-0.040922403 0.013324309 0.033665415 0.08769458 -0.034214187 -0.075737834 -0.07305418 -0.025346579
-0.027301343 0.09072556 -0.06671145 0.058863927 0.04711556 -0.066449575 -0.04977679 -0.044135753
-0.041688032 -0.050617784 0.043867443 0.06888975 0.06804771 0.004095611 -0.046181023 -0.08668705
0.052019138 0.06469032 0.04269839 -0.018164113 0.065440275 -0.06620559 -0.084414005 0.08354347
-0.014984261 0.0146300765 0.03066463 -0.017651426 -0.04287546 0.06862381 0.015402701 0.05629816
-0.08001549 -0.06537088 -0.0026251983 0.00903919 0.041525967 0.056819364 0.073034704 0.033791825
0.017485702 0.026157629 0.01765268 0.008140497 0.02655588 0.032633178 0.0017084536 0.0020982004
-0.050503038 -0.0037709111 -0.030965356 0.02080923 -0.053858574 0.0466402 0.0046997564 -0.061361752
0.07700554 0.079090886 -0.0028152547 -0.017316425 0.020542754 0.06957713 0.037812557 0.028185982
-0.0020220175 0.02611283 0.07575656 0.02078261 -0.06915468 0.020027531 -0.03049608 0.015848208
-0.018978193 0.04379944 0.029986816 -0.036288485 -0.039854728 0.038792536 0.07568209 0.076610334
0.071386084 0.062001567 0.039071806 0.03329473 -0.06998415 -0.04282452 -0.07450411 0.09265472
0.038138714 -0.029211175 0.07140065 0.009256883 0.06548337 -0.01838424 0.07222597 -0.07178246
-0.021250218 0.006163924 -0.057062265 -0.05766315 0.05634559 -0.034735408 -0.048833497 -0.041303705
-0.03571414 -0.028321978 0.07929465 -0.0038826806 -0.030327922 -0.05708747 -0.029896919 -0.04426303
-0.048735853 -0.04672642 0.07759311 -0.025895188 -0.08359228 0.08797721 -0.06906523 0.046591975
0.09085376 0.053246535 0.04808832 -0.06440694 -0.045570385 0.06686004 0.047262404 0.05027611
0.028747043 -0.0069561712 -0.07056882 -0.07681408 -0.06836014 0.061754193 -0.00562066 -0.016259838
-0.06997283 0.03962868 -0.023049437 -0.03827862 -0.04237813 -0.001793293 0.07411014 -0.015380193
0.029798705 -0.0150477 0.031591672 0.0058469176 0.029598117 -0.013915588 0.027826032 -0.027511513
00000000: afb2 81bd fb5f 40bd db1a 83bd 1d22 973d
00000010: 2e00 473d fd9c 73bd c8ed 9e3d 45df 6c3c
00000020: 687b c03d cc40 83bd 01a5 583b 4ad6 10bd
00000030: 2952 0fbd b047 30bd 9e85 b6bd bb71 47bd
00000040: c880 183d 617e 30bc 0c05 bdbd f3af 8fbd
00000050: 4ef0 93bd 5a85 b4bc b5cf 97bd be96 c53d
00000060: fd55 79bd 76b7 0d3d 8d38 8ebd 7212 52bd
00000070: 2ae9 7e3d 55c6 4e3d be97 98bd c285 3a3d
00000080: d1ac 99bd c410 abbc 676b ff3c 583d 23bd
00000090: f0c4 c0bc 910d 353b ed18 413b 0401 9c3d
000000a0: b4fb a0bd 9922 813d 9783 e8b9 19da 5c3d
000000b0: e8fd d6bc a26b 2cbd 67a8 453d 471e eebc
000000c0: 4250 6abd 9e5f 71bd 3273 9dbd 199d dbbc
000000d0: f7f4 59bb 839f 1fbb cc22 493c 2788 0dbd
000000e0: 1288 c3bc 0916 943d afae fcbc b494 afbc
000000f0: bef5 3abd 99f0 a33d 2f9e 37bd 7ca9 883c
00000100: 945d b1bc 02cb 863c c410 8d3c aa6a 353d
00000110: aa82 2b3d 47d4 babd 0815 4f3d d7c1 c1bd
00000120: d937 b4bd 9056 12bd e4c0 91bc 582a a2bc
00000130: f20e df3a a5ef 17bd 9513 7fbd 264c 7dbd
00000140: 1b17 453c 6504 a9bc a05c 33bd ed3b dabb
00000150: 9841 2f3b ba0f b33d ab26 313d a326 8e3d
00000160: 08c6 05bc d6bb b73c bdd9 a9bd 0129 60bd
00000170: 3f2b 663c 305d 83bd c354 30bd 3058 b33d
00000180: 409e 27bd 344e 5a3c bfe4 093d 3799 b33d
00000190: 2d24 0cbd 701c 9bbd 6e9d 95bd a1a3 cfbc
000001a0: 11a7 dfbc 53ce b93d 03a0 88bd 4d1b 713d
000001b0: 3ffc 403d b716 88bd bfe2 4bbd b1c7 34bd
000001c0: 12c1 2abd 9854 4fbd 59ae 333d 1216 8d3d
000001d0: 995c 8b3d 7a34 863b 5028 3dbd fb88 b1bd
000001e0: 0512 553d 5c7c 843d 82e4 2e3d e8cc 94bc
000001f0: 8d05 863d cc96 87bd 40e1 acbd d718 ab3d
00000200: 8c80 75bc fdb2 6f3c 6434 fb3c b999 90bc
00000210: 2e9e 2fbd a48a 8c3d 9c5b 7c3c e698 663d
00000220: 29df a3bd 2be1 85bd 850b 2cbb 1c19 143c
00000230: 2217 2a3d 6cbb 683d 3893 953d 4c69 0a3d
00000240: 2d3e 8f3c 8648 d63c 5a9c 903c b85f 053c
00000250: b88b d93c 5eaa 053d 31ee df3a f681 093b
00000260: 46dc 4ebd 6421 77bb 0fab fdbc 1e78 aa3c
00000270: cf9a 5cbd cb09 3f3d 6a00 9a3b 7656 7bbd
00000280: 15b5 9d3d 67fa a13d 2380 38bb 2ddb 8dbc
00000290: 4749 a83c 747e 8e3d 57e1 1a3d 4ae6 e63c
000002a0: d383 04bb 93ea d53c 4126 9b3d 4b40 aa3c
000002b0: f8a0 8dbd c710 a43c ead2 f9bc 1ad4 813c
000002c0: 2878 9bbc 0b67 333d e9a6 f53c 3ca3 14bd
000002d0: b63e 23bd ece4 1e3d 36ff 9a3d e1e5 9c3d
000002e0: de32 923d 5bf5 7d3d c209 203d 0e60 083d
000002f0: da53 8fbd c468 2fbd 9c95 98bd c2c1 bd3d
00000300: 5737 1c3d 464c efbc 813a 923d 2eaa 173c
00000310: 251c 863d 8c9a 96bc 36eb 933d af02 93bd
00000320: f014 aebc befa c93b 1fba 69bd 3230 6cbd
00000330: a2ca 663d b746 0ebd a205 48bd 132e 29bd
00000340: fd48 12bd 7e03 e8bc 3c65 a23d 9274 7ebb
00000350: 4372 f8bc 8dd4 69bd 62ea f4bc 274d 35bd
00000360: 3f9f 47bd 3464 3fbd 23e9 9e3d 2522 d4bc
00000370: 6e32 abbd 652d b43d 1272 8dbd 3ad7 3e3d
00000380: 8911 ba3d 0a19 5a3d 42f8 443d c9e7 83bd
00000390: 03a8 3abd ebed 883d 3996 413d 53ee 4d3d
000003a0: eb7e eb3c 98f0 e3bb 6386 90bd b350 9dbd
000003b0: 6700 8cbd f7f1 7c3d 832d b8bb 5a33 85bc
000003c0: ea4d 8fbd af51 223d 2cd2 bcbc 0bca 1cbd
000003d0: b194 2dbd ee0c ebba 0fc7 973d 34fd 7bbc
000003e0: 6a1c f43c a18a 76bc 4566 013d 8097 bf3b
000003f0: c077 f23c 35fe 63bc 6bf3 e33c d35f e1bc

layers.0.linear.bias f4 [128]
0.06083637 0.015506263 -0.092255026 0.03304615 -0.08469908 -0.04667303 0.011468836 -0.0077081127
0.03719863 -0.06395243 0.048281536 0.09120371 -0.007540854 -0.08262941 0.062429857 0.08858019
-0.0069806823 0.0783319 0.012865391 0.062300026 0.0030510572 -0.06377392 -0.0079501355 0.017804766
0.049572658 0.02926198 -0.017484508 -0.082369044 0.024687434 -0.027557192 0.061198037 0.019119408
0.06266953 0.039533786 -0.0069992766 -0.06286689 -0.056121625 -0.040467273 0.038386237 0.03236182
0.014918414 0.0242505 -0.03097018 -0.0806681 0.028316248 -0.0415313 -0.070641376 -0.017558662
-0.046691265 0.052286766 -0.06186189 -0.017597966 -0.0787716 0.034548536 0.057895962 -0.04636009
0.05343655 -0.0087328665 0.058484852 -0.018924877 -0.0016781751 0.061383758 0.0036308034 -0.050929416
-0.04861367 -0.059901025 -0.0833245 -0.08632886 0.026539743 -0.037240542 0.0013306811 -0.044963207
-0.04186896 -0.07522455 -0.06490529 -0.017087018 -0.021635491 -0.06877153 -0.06652523 -0.044323172
-0.039565712 0.021856098 -0.06770233 -0.063323915 -0.08147377 0.027115555 -0.060571928 0.005483857
-0.052402057 0.029235145 0.04986864 0.041664235 -0.0124815125 0.026075682 1.8335959e-05 0.024416609
-0.07167338 -0.07353223 0.019746937 0.021140018 0.059656106 0.004523238 0.023489403 0.08725492
-0.08344325 0.0877408 0.07051148 -0.059072115 -0.09347956 -0.049657762 0.06449424 0.07490575
0.058833685 -6.927956e-05 -0.06353657 0.0035478296 0.08975345 0.04343141 0.045816164 -0.07554392
-0.056098744 0.06828036 -0.09290045 -0.06010476 -0.0075646634 0.0496111 0.046619356 -0.06555076
00000000: 8f2f 793d fb0d 7e3c 34f0 bcbd 665b 073d
00000010: b676 adbd 382c 3fbd c9e7 3b3c 5694 fcbb
00000020: 975d 183d 7ef9 82bd dcc2 453d 03c9 ba3d
00000030: 4519 f7bb 9c39 a9bd 73b6 7f3d 8869 b53d
00000040: 35be e4bb 7a6c a03d 5cc9 523c 502e 7f3d
00000050: 3ff4 473b e79b 82bd 4941 02bc 4ddb 913c
00000060: b30c 4b3d d2b6 ef3c ac3b 8fbc 1ab1 a8bd
00000070: 4d3d ca3c 9fbf e1bc cbaa 7a3d 4ea0 9c3c
00000080: e258 803d 2eee 213d 305a e5bb 5bc0 80bd
00000090: cadf 65bd 03c1 25bd e33a 1d3d d48d 043d
000000a0: 5d6c 743c fca8 c63c 2db5 fdbc 5135 a5bd
000000b0: 7af7 e73c b91c 2abd 6dac 90bd 2fd7 8fbc
000000c0: 573f 3fbd a62a 563d e562 7dbd 9c29 90bc
000000d0: 0153 a1bd c482 0d3d 5124 6d3d 14e4 3dbd
000000e0: 49e0 5a3d 4c14 0fbc d08d 6f3d 5808 9bbc
000000f0: 36f6 dbba 896d 7b3d c6f2 6d3b 5d9b 50bd
00000100: 211f 47bd c75a 75bd 09a6 aabd 2fcd b0bd
00000110: e069 d93c 8a89 18bd 406a ae3a 572b 38bd
00000120: c97e 2bbd 540f 9abd 11ed 84bd 13fa 8bbc
00000130: ea3c b1bc 17d8 8cbd 613e 88bd 378c 35bd
00000140: a80f 22bd 8f0b b33c 85a7 8abd f8af 81bd
00000150: b8db a6bd 7121 de3c 451a 78bd edb1 b33b
00000160: 8aa3 56bd 8b7e ef3c 0f43 4c3d 1ea8 2a3d
00000170: 427f 4cbc ab9c d53c 2cd0 9937 5705 c83c
00000180: 7ec9 92bd 1198 96bd 54c4 a13c d52d ad3c
00000190: f659 743d ac37 943b d96c c03c b5b2 b23d
000001a0: 4be4 aabd 73b1 b33d 5368 903d 9af5 71bd
000001b0: 3672 bfbd f065 4bbd 8e15 843d 3068 993d
000001c0: 97fb 703d 2e4a 91b8 761f 82bd b482 683b
000001d0: a8d0 b73d 22e5 313d bba9 3b3d c5b6 9abd
000001e0: ccc7 65bd 93d6 8b3d 9742 bebd 6930 76bd
000001f0: ffe0 f7bb 0235 4b3d f0f3 3e3d 7a3f 86bd

layers.0.norm.weight f4 [128]
1.0070989 0.9927121 0.99400455 0.99201983 1.0043778 0.9991425 0.99149096 0.99769443
1.0021243 1.0019361 0.99372256 1.0016857 0.99444944 0.9937144 0.99456376 1.0002183
1.0041345 1.0064262 0.9971614 1.002487 0.9904947 0.99819213 0.9984331 1.0017792
1.0072157 0.9954368 0.994071 0.99702954 0.99635977 0.9923362 0.9980844 0.995599
0.9959359 1.0016338 0.9949271 0.9944686 0.9925529 1.0009323 0.9853567 0.9938727
1.0013947 0.9908391 1.0011784 0.98887503 0.9943196 0.99678135 1.0002874 1.0062639
0.99486125 1.0034574 1.0079596 0.9958091 0.9946397 0.99992603 0.99604374 0.9988907
1.002491 1.00102 0.99419117 1.005653 0.99251527 0.99620914 0.9922507 1.0044817
0.9990001 1.0048153 0.9985374 0.99593073 0.998959 0.9990762 0.9961218 1.0032716
0.99981654 0.99799305 0.9975009 1.0058407 0.9957483 1.0070742 1.0019094 1.0039344
1.0062969 0.9953317 0.999306 0.99569064 0.99282265 0.99411064 0.9993064 1.0024443
1.0037115 0.99572104 1.0064347 1.0080383 1.0048774 1.0037092 0.99373657 0.9935329
1.0013417 0.99911 0.9905663 0.9967886 0.9995769 0.9937414 1.0012891 0.9959792
0.9975359 0.9985631 1.0052062 0.99740666 1.003788 1.0035765 0.9964286 1.0000119
1.0087341 0.9971616 1.0073172 0.9982549 0.99324024 0.9964511 0.99458283 0.9955163
0.99640644 0.99225545 0.9929474 1.0047851 0.99217063 0.99198806 1.0061785 0.9952144
00000000: 9ee8 803f 6122 7e3f 1577 7e3f 03f5 7d3f
00000010: 748f 803f cec7 7f3f 5ad2 7d3f e768 7f3f
00000020: 9c45 803f 713f 803f 9a64 7e3f 3d37 803f
00000030: 3d94 7e3f 1164 7e3f bb9b 7e3f 2707 803f
00000040: 7b87 803f 93d2 803f f845 7f3f 7e51 803f
00000050: 1091 7d3f 8589 7f3f 5099 7f3f 4d3a 803f
00000060: 72ec 803f f2d4 7e3f 707b 7e3f 543d 7f3f
00000070: 6f11 7f3f bf09 7e3f 7682 7f3f 93df 7e3f
00000080: a8f5 7e3f 8935 803f 8bb3 7e3f 7f95 7e3f
00000090: f217 7e3f 8d1e 803f 5640 7c3f 716e 7e3f
000000a0: b42d 803f a2a7 7d3f 9d26 803f ea26 7d3f
000000b0: bb8b 7e3f 102d 7f3f 6b09 803f 41cd 803f
000000c0: 3aaf 7e3f 4b71 803f d204 813f 58ed 7e3f
000000d0: b5a0 7e3f 27fb 7f3f b9fc 7e3f 4db7 7f3f
000000e0: a051 803f 6c21 803f 5083 7e3f 3db9 803f
000000f0: 7b15 7e3f 9007 7f3f 2404 7e3f db92 803f
00000100: 78be 7f3f ca9d 803f 26a0 7f3f 51f5 7e3f
00000110: c7bb 7f3f 75c3 7f3f d701 7f3f 346b 803f
00000120: faf3 7f3f 797c 7f3f 385c 7f3f 63bf 803f
00000130: 5ce9 7e3f cfe7 803f 913e 803f ec80 803f
00000140: 56ce 803f 0fce 7e3f 85d2 7f3f 95e5 7e3f
00000150: a029 7e3f 097e 7e3f 8bd2 7f3f 1850 803f
00000160: 9e79 803f 93e7 7e3f dad2 803f 6607 813f
00000170: d39f 803f 8b79 803f 8565 7e3f 2c58 7e3f
00000180: f72b 803f acc5 7f3f c195 7d3f 8a2d 7f3f
00000190: 46e4 7f3f d665 7e3f 3e2a 803f 7ef8 7e3f
000001a0: 835e 7f3f d5a1 7f3f 99aa 803f 0b56 7f3f
000001b0: 207c 803f 3275 803f f215 7f3f 6400 803f
000001c0: 331e 813f fc45 7f3f c5ef 803f a28d 7f3f
000001d0: fe44 7e3f 6b17 7f3f fb9c 7e3f 28da 7e3f
000001e0: 7e14 7f3f 7404 7e3f cd31 7e3f cc9c 803f
000001f0: e5fe 7d3f eef2 7d3f 75ca 803f 5fc6 7e3f

layers.0.norm.bias f4 [128]
0.0054239556 -0.0067605777 0.0038120274 -0.0071515692 -0.005771426 -0.0047993567 -0.0038541814 -0.0028801425
-0.0031573542 0.0075114146 0.0019935302 0.007467473 -0.0066754655 -0.0048468853 -0.0021613499 0.0015640967
-0.003937574 0.005621021 -0.003234186 -0.0021719004 -0.0012209796 -0.004661942 -0.004183335 0.0015739108
-0.003941135 -0.000883815 -0.006835372 0.004342119 -0.0044341628 -0.0039255195 -0.0051531703 -0.0033066426
-0.0047001187 0.0036294933 -0.002937056 0.0029514828 -0.007466391 0.0030135876 0.007995197 -0.008217577
0.00024641433 -0.0008472956 0.001367922 0.0013438163 -0.004256473 0.0017818086 0.0007865546 0.008212887
0.0012318434 0.0012846754 -0.0012057831 -0.004555624 -0.0024309894 0.00090763596 -0.0035773255 -0.0030418362
-0.0018045163 -0.0048901704 -0.0028995536 -0.0046171113 -0.0012943941 -0.003141633 0.00037936366 -0.0031583684
-0.001766319 0.0042265523 -0.004689206 -0.002755703 -0.0023141804 -0.0010141425 -0.006348616 0.0019455561
-0.0031213793 -0.0012844214 -0.0009798012 0.0049041864 -0.005222747 0.003949616 0.0017408096 -0.00030287966
0.0048994394 -0.00659488 -0.0013843245 -0.0052708657 0.001544279 -0.0064887395 -0.0036201174 -0.00048308994
0.008680349 -0.0057275156 -0.0060413675 0.002042152 0.007057277 0.004970999 -0.0028173255 -0.00654511
0.0011630522 -0.005649214 -0.0009901975 -0.00078076054 -0.0018793333 -0.004575056 -0.00015969363 0.00072280935
-0.0072405743 0.0017919794 0.0073476215 -0.0018273873 0.0031704544 -0.00272967 -0.003914708 -0.006536466
0.0062220274 -9.41137e-05 0.004693663 -0.0017019204 -0.002739928 0.0006774885 0.0039775893 -0.0022447852
-0.0042085494 -0.0011691711 -0.0079015745 0.005387817 0.0043911296 -0.0033069265 0.002768601 -0.0055233515
00000000: 70bb b13b d687 ddbb 35d3 793b b657 eabb
00000010: 3b1e bdbb ec43 9dbb 6f96 7cbb c6c0 3cbb
00000020: 9deb 4ebb 5022 f63b e3a5 023b b4b1 f43b
00000030: ddbd dabb 9fd2 9ebb 6fa5 0dbb 6002 cd3a
00000040: c406 81bb 8b30 b83b a3f4 53bb 7156 0ebb
00000050: 4709 a0ba 34c3 98bb 5c14 89bb af4b ce3a
00000060: a324 81bb d2af 67ba 42fb dfbb 5648 8e3b
00000070: 744c 91bb a5a1 80bb eddb a8bb 42b4 58bb
00000080: 7403 9abb cbdc 6d3b 9f7b 40bb aa6d 413b
00000090: a1a8 f4bb 9c7f 453b 49fe 023c 04a3 06bc
000000a0: 2c31 8139 0c1d 5eba d94b b33a fe22 b03a
000000b0: e279 8bbb 938b e93a c930 4e3a 588f 063c
000000c0: ce75 a13a 8e62 a83a 5e0b 9eba 5847 95bb
000000d0: 3c51 1fbb 6bee 6d3a 9071 6abb 8b59 47bb
000000e0: 8585 ecba b93d a0bb 7006 3ebb 234b 97bb
000000f0: a9a8 a9ba dbe3 4dbb 54e5 c639 a1fc 4ebb
00000100: d583 e7ba e47e 8a3b e9a7 99bb 0699 34bb
00000110: 81a9 17bb faec 84ba 0d08 d0bb 0802 ff3a
00000120: 0e90 4cbb 085a a8ba ac6c 80ba 4cb3 a03b
00000130: 9423 abbb c86b 813b e12b e43a d2cb 9eb9
00000140: 7a8b a03b dd19 d8bb 3972 b5ba 3ab7 acbb
00000150: 6869 ca3a 7e9f d4bb 7e3f 6dbb 3c47 fdb9
00000160: 0638 0e3c e2ad bbbb aaf6 c5bb a0d5 053b
00000170: bb40 e73b c3e3 a23b e1a2 38bb 5d78 d6bb
00000180: 8e71 983a 0b1d b9bb 84c9 81ba f4ab 4cba
00000190: f653 f6ba 5aea 95bb 6f73 27b9 ea7a 3d3a
000001a0: 5742 edbb dae0 ea3a 51c4 f03b f184 efba
000001b0: 66c7 4f3b 43e4 32bb f346 80bb da2f d6bb
000001c0: 26e2 cb3b e85e c5b8 4dcd 993b f912 dfba
000001d0: 5d90 33bb 7c99 313a 7056 823b 3f1d 13bb
000001e0: dfe7 89bb df3e 99ba 9b75 01bc 498c b03b
000001f0: 77e3 8f3b 05b9 58bb 6b71 353b 3bfd b4bb

layers.1.linear.weight f4 [128, 128]
0.078132875 0.032132607 -0.07144392 0.021597574 -0.034535255 0.07254823 0.029396217 0.01617028
0.04706644 -0.012080327 0.027278304 -0.037236717 -0.013667514 0.07903494 -0.009927158 -0.049544066
0.027614474 -0.025734235 -0.06726271 -0.004384378 -0.06639119 -0.053945344 0.027759023 -0.0666935
-0.04876464 -0.021162206 -0.038274217 -0.018034454 -0.00052965415 -0.05097449 -0.045191497 0.03600101
0.06175471 0.065867804 0.07679156 -5.6638764e-05 -0.012275136 0.043069307 -0.0089280205 0.0025713812
-0.089993656 0.0267609 0.053143557 -0.07948485 0.07101875 -0.022401512 0.000658781 0.09446265
0.01814207 0.06468169 0.0103032505 0.057362184 -0.023777425 -0.053918995 -0.06889304 -0.05741755
0.058607243 -0.011116875 0.020107038 -0.027027357 0.01370022 -0.050918274 0.058291152 -0.031725805
0.02109305 0.0640684 -0.0055261096 0.06004672 0.08836026 -0.054843582 0.006915965 -0.01582698
0.077235885 0.04378095 0.034726 0.08965403 0.007463721 -0.021266447 0.044409063 -0.0011263809
0.064102955 -0.024331536 0.075454496 -0.081898294 -0.0024996635 0.008671873 0.029903209 0.0144084785
0.02297898 0.08709757 -0.076701276 -0.015043796 0.002204155 -0.049596827 0.0066287136 0.02880383
-0.04115278 0.056034576 -0.075801075 -0.059860107 -0.05059414 0.048621908 0.05777097 0.04033649
0.00484253 -0.02770219 -0.07912957 0.00658457 0.04040167 -0.0465736 0.045483332 0.027470095
0.00661188 -0.05446014 -0.014276294 -0.0036369585 0.02349069 0.09922377 0.02444014 0.059673104
-0.0788482 0.02482023 0.022659415 -0.06904175 -0.05728819 -0.050356176 -0.055021334 0.05645247
0.083892025 -0.05932277 -0.030314429 0.00051780685 0.021925714 0.065329544 0.017907247 -0.045236014
-0.049764372 0.02590221 -0.018115086 -0.092029214 0.00498442 0.04896161 0.089322016 0.0539863
-0.06494677 -0.010995435 0.021008972 0.049104482 -0.09381422 0.049468596 -0.080541044 0.03566598
0.06412182 -0.07724938 -0.03104447 -0.09034289 0.07126629 0.028766062 -0.0829569 0.029711066
0.0091986405 -0.04131056 0.07542522 0.02738088 -0.08348938 -0.032324202 0.08606813 -0.03300728
0.07897241 0.016188387 -0.010244703 0.07190659 -0.05134957 -0.026195878 -0.076745965 -0.011667027
0.049647976 0.0020311608 0.030262843 0.009376963 0.022405734 -0.09285254 0.0031734037 0.05964984
-0.07857151 0.04296106 -0.08355553 0.0104541695 -0.06653814 0.02475728 0.010748588 -0.0019980434
-0.040103797 0.084235 -0.07890461 0.06863864 -0.054362625 -0.053520612 0.06534888 0.050410833
-0.01012111 0.044744737 -0.079106934 -0.09170788 0.06450677 0.020543957 -0.011525147 0.059222464
-0.0851341 -0.061858177 0.0064209676 -0.0050182627 -0.009902181 0.03636174 0.06958065 -0.052278943
-0.08416827 -0.08106536 0.026401253 -0.048067622 -0.011669921 -0.035525713 0.0161231 0.060055003
0.036265444 -0.058094155 -0.071704835 0.035442237 0.011301424 -0.020120788 0.03019575 -0.066734485
-0.02568474 -0.057238948 0.0674652 0.038842455 0.07003535 -0.059442215 -0.0044420017 -0.074904226
0.0016419392 0.03948084 -0.06906151 0.05319124 0.09603625 0.0649054 -0.0028345329 0.07399142
0.046695333 -0.046430144 -0.07241591 -0.06467818 -0.014420533 0.04766779 0.029175214 -0.0645546
00000000: 2104 a03d 7b9d 033d 3151 92bd 65ed b03c
00000010: d774 0dbd 2b94 943d 56d0 f03c 8977 843c
00000020: bdc8 403d 90ec 45bc c076 df3c 8785 18bd
00000030: b5ed 5fbc 12dd a13d 85a5 22bc b8ee 4abd
00000040: c037 e23c 9ad0 d2bc 08c1 89bd d4aa 8fbb
00000050: 1bf8 87bd cbf5 5cbd e466 e33c 9a96 88bd
00000060: 6ebd 47bd 5d5c adbc 6dc5 1cbd febc 93bc
00000070: 7dd8 0aba a0ca 50bd b81a 39bd cc75 133d
00000080: 82f2 7c3d b3e5 863d e544 9d3d 698f 6db8
00000090: a71d 49bc 7169 303d d546 12bc 9e84 283b
000000a0: 984e b8bd ad39 db3c 0fad 593d f4c8 a2bd
000000b0: 4772 913d 6083 b7bc 0bb2 2c3a a275 c13d
000000c0: ae9e 943c d577 843d f7ce 283c 9cf4 6a3d
000000d0: e0c8 c2bc 2ada 5cbd cb17 8dbd aa2e 6bbd
000000e0: 260e 703d 8e23 36bc 84b7 a43c 7a68 ddbc
000000f0: e376 603c ae8f 50bd b4c2 6e3d ebf2 01bd
00000100: 55cb ac3c 4b36 833d 5e14 b5bb 8df3 753d
00000110: 39f6 b43d aaa3 60bd 529f e23b 95a7 81bc
00000120: d92d 9e3d a753 333d da3c 0e3d 889c b73d
00000130: 3b92 f43b f936 aebc 47e6 353d 12a3 93ba
00000140: 6948 833d ee52 c7bc e387 9a3d 4bba a7bd
00000150: 65d1 23bb 7914 0e3c 93f7 f43c 8a11 6c3c
00000160: 6a3e bc3c 3660 b23d 8f15 9dbd 417a 76bc
00000170: 9673 103b 0b26 4bbd ae35 d93b 02f6 eb3c
00000180: d18f 28bd 8384 653d 983d 9bbd df2f 75bd
00000190: cd3b 4fbd c427 473d 41a1 6c3d e037 253d
000001a0: 16ae 9e3b b4ef e2bc af0e a2bd 60c3 d73b
000001b0: 397c 253d f6c3 3ebd bb4c 3a3d f708 e13c
000001c0: 78a8 d83b 9911 5fbd 1ee7 69bc 0a5a 6ebb
000001d0: 8c6f c03c d535 cb3d b036 c83c c96b 743d
000001e0: 2a7b a1bd cc53 cb3c 3da0 b93c c365 8dbd
000001f0: 05a7 6abd 4742 4ebd 0d5e 61bd b53a 673d
00000200: 95cf ab3d 6ffc 72bd f755 f8bc 6ebd 073a
00000210: 8e9d b33c 7fcb 853d 38b2 923c 6649 39bd
00000220: bad5 4bbd df30 d43c 1766 94bc d079 bcbd
00000230: 5854 a33b f88b 483d 76ee b63d bd20 5d3d
00000240: d002 85bd 3226 34bc 021b ac3c c821 493d
00000250: ab21 c0bd 959f 4a3d b4f2 a4bd 7e16 123d
00000260: 4d52 833d ec34 9ebd f950 febc b105 b9bd
00000270: 10f4 913d cea6 eb3c 4fe5 a9bd 9f64 f33c
00000280: e5b5 163c 4335 29bd 8a78 9a3d de4d e03c
00000290: 7bfc aabd 6266 04bd 7d44 b03d a432 07bd
000002a0: 49bc a13d 829d 843c 66d9 27bc c343 933d
000002b0: ed53 52bd bd98 d6bc fd2c 9dbd 0f27 3fbc
000002c0: ad5b 4b3d 391d 053b c8e9 f73c d5a1 193c
000002d0: 3b8c b73c 7929 bebd e1f8 4f3b 6453 743d
000002e0: 1aea a0bd f0f7 2f3d 291f abbd f747 2b3c
000002f0: 2645 88bd c7cf ca3c d81a 303c 9bf1 02bb
00000300: e143 24bd 6683 ac3d bd98 a1bd 6a92 8c3d
00000310: 58ab 5ebd 6e38 5bbd a2d5 853d 977b 4e3d
00000320: 03d3 25bc 4246 373d d102 a2bd 57d1 bbbd
00000330: 201c 843d cd4b a83c f8d3 3cbc 4193 723d
00000340: c95a aebd 005f 7dbd fb66 d23b 3d70 a4bb
00000350: c23c 22bc 0cf0 143d 4d80 8e3d 7222 56bd
00000360: 6a60 acbd 9805 a6bd 7147 d83c 8ee2 44bd
00000370: 3233 3fbc 6983 11bd 9714 843c 3cfc 753d
00000380: 138b 143d 23f4 6dbd fcd9 92bd e12b 113d
00000390: 9c29 393c 5ad4 a4bc 145d f73c 17ac 88bd
000003a0: ce68 d2bc 6373 6abd 322b 8a3d 4419 1f3d
000003b0: b26e 8f3d ae79 73bd 368e 91bb 6367 99bd
000003c0: 5636 d73a a9b6 213d 1f70 8dbd 0fdf 593d
000003d0: a7ae c43d 1fed 843d 92c3 39bb d088 973d
000003e0: 9b43 3f3d 892d 3ebd cb4e 94bd fe75 84bd
000003f0: 1944 6cbc 4d3f 433d dc00 ef3c 3435 84bd

layers.1.linear.bias f4 [128]
0.038872622 -0.062548384 0.0896698 0.027192917 0.07959919 -0.04327668 0.048713043 -0.09321765
0.0004010439 -0.04999601 -0.03863568 0.080358304 0.033729706 0.012201841 0.029263431 0.03309618
-0.040288012 -0.008886819 0.09113658 0.03478231 0.076395735 -0.08566663 0.019745024 0.071317464
0.08704274 -0.07396912 -0.0486068 0.022172045 0.05808584 -0.014672063 0.03250177 -0.005330677
0.023635082 -0.043529533 0.034926597 -0.07450205 -0.07011327 0.031732947 -0.031795237 0.07491232
0.05721779 -0.04659519 0.054733355 -0.013544348 -0.06412948 0.03254843 0.07419408 0.055426158
0.008656906 -0.08322164 -0.027132878 0.012515363 -0.08020095 -0.02692824 -0.09099646 -0.02606744
0.0024048646 0.049669486 -0.028672958 -0.033027206 -0.034559567 0.047914654 -0.026038865 0.057990525
-0.025924811 0.032822933 -0.014995529 -0.08827481 0.047462113 -0.06699825 0.05526238 0.067396015
-0.028332785 0.04075508 0.057564497 -0.00010260426 -0.07212845 -0.06498854 -0.019213716 -0.009796741
-0.042437423 -0.07436658 0.015973331 0.049060468 -0.082649365 -0.058480546 0.023957714 0.009485734
-0.059037287 0.05828689 0.0031189122 -0.04662751 0.07686434 -0.08800135 -0.032453794 -0.030909762
-0.021698358 -0.057537653 -0.07110798 -0.042944163 -0.042539265 0.06132124 0.070445545 -0.04925428
-0.012683883 -0.005170356 -0.042606913 -0.07865256 -0.0155039625 0.06627005 0.040288616 -0.08077204
0.07768362 0.045233168 -0.02410117 0.013329919 0.017621055 -0.028381608 -0.034355246 -0.05535842
-0.068846844 -0.027260017 0.04222339 -0.014417121 0.03961418 -0.0760339 -0.013572589 -0.069117196
00000000: e638 1f3d 5e19 80bd cda4 b73d aec3 de3c
00000010: e604 a33d e342 31bd 5487 473d e5e8 bebd
00000020: 3343 d239 9ec8 4cbd 7240 1ebd e592 a43d
00000030: 2928 0a3d 3bea 473c ddb9 ef3c dc8f 073d
00000040: 0b05 25bd 059a 11bc d1a5 ba3d e577 0e3d
00000050: 5e75 9c3d fc71 afbd 51c0 a13c e40e 923d
00000060: 7743 b23d 1f7d 97bd ed17 47bd 26a2 b53c
00000070: 6beb 6d3d 1863 70bc 9320 053d f6ac aebb
00000080: 5c9e c13c 064c 32bd 310f 0f3d 8894 98bd
00000090: 8c97 8fbd 68fa 013d b93b 02bd a16b 993d
000000a0: 345d 6a3d 99da 3ebd 1530 603d 1de9 5dbc
000000b0: 5156 83bd 8151 053d 11f3 973d 8a06 633d
000000c0: b2d5 0d3c 1b70 aabd c545 debc 3d0d 4d3c
000000d0: 6540 a4bd 9d98 dcbc 5a5c babd 628b d5bc
000000e0: ef9a 1d3b 3b72 4b3d 8de3 eabc 8947 07bd
000000f0: 558e 0dbd 2842 443d 754f d5bc 7987 6d3d
00000100: 4560 d4bc 5771 063d cfaf 75bc 6cc9 b4bd
00000110: a267 423d 6136 89bd ce5a 623d ec06 8a3d
00000120: 281a e8bc ccee 263d c0c8 6b3d 3e2d d7b8
00000130: 15b8 93bd b618 85bd 1566 9dbc 8382 20bc
00000140: ddd2 2dbd 814d 98bd 81da 823c a1f3 483d
00000150: 1244 a9bd 4c89 6fbd f842 c43c 0d6a 1b3c
00000160: 15d1 71bd 3cbe 6e3d aa66 4c3b 7dfc 3ebd
00000170: 0d6b 9d3d 0d3a b4bd 45ee 04bd 7836 fdbc
00000180: c1c0 b1bc 9aac 6bbd 10a1 91bd 38e6 2fbd
00000190: a73d 2ebd fb2b 7b3d c145 903d dbbe 49bd
000001a0: 10d0 4fbc 176c a9bb 9684 2ebd 9814 a1bd
000001b0: 5504 7ebc 98b8 873d ad05 253d d06b a5bd
000001c0: 9718 9f3d 6a46 393d d16f c5bc bc65 5a3c
000001d0: 085a 903c 8c80 e8bc 16b8 0cbd 83bf 62bd
000001e0: 93ff 8cbd 6650 dfbc 6ff2 2c3d ca35 6cbc
000001f0: 7a42 223d a9b7 9bbd 905f 5ebc 518d 8dbd

layers.1.norm.weight f4 [128]
0.9944463 1.003957 0.98999846 1.0028775 1.0031346 0.9991969 1.0051544 0.9965565
0.9968761 1.0067611 0.9961134 0.99888444 1.005457 1.0035236 1.0055989 1.0061458
1.0043463 0.98901165 0.99123996 0.9976241 0.99004036 0.9936613 0.9969577 0.9968892
0.99290335 1.0035616 0.9933537 1.0057774 0.9952003 0.99570984 0.9924647 0.9968009
0.9947235 0.992214 0.9992457 1.0069658 1.0015274 0.99973524 1.0086329 1.0001194
0.99918616 1.0113726 0.99663997 1.009334 1.0057648 1.0040804 0.9955362 0.9982294
0.99473315 0.9904514 1.0013428 1.0029343 0.9985075 0.99221575 1.0032833 1.0030334
0.9957668 0.9947546 0.99319506 0.99837756 1.0097833 0.99965715 0.9953011 0.99628353
0.99714947 1.0044444 0.99499017 0.9972185 0.98822236 0.99757236 1.0037467 0.99367744
0.9845297 0.99136716 0.99683917 0.9999188 1.0089445 1.0008659 0.99936074 0.99262124
1.002458 0.99612576 1.0040954 0.997307 0.997208 1.0042788 0.992046 1.005697
0.99296 1.0085684 0.99657923 1.0038394 0.997684 0.9971688 1.0074639 1.0004723
0.9927625 0.99728495 1.0112375 0.9938667 1.0081601 0.9991078 0.98669684 1.0066485
0.9954923 1.0033321 1.0084206 0.9928813 0.99226856 1.005954 1.0027193 0.9993529
0.9993074 1.0075902 1.0095125 1.0096633 0.9954988 0.9959169 1.009451 0.9975357
0.9998251 0.9901926 0.9935551 0.9943838 0.99790937 0.9911768 1.0060711 0.9925834
00000000: 0894 7e3f aa81 803f 8a70 7d3f 4a5e 803f
00000010: b766 803f 5ecb 7f3f e6a8 803f 541e 7f3f
00000020: 4633 7f3f 8cdd 803f 4a01 7f3f e4b6 7f3f
00000030: d1b2 803f 7673 803f 77b7 803f 63c9 803f
00000040: 6b8e 803f de2f 7d3f e7c1 7d3f 4b64 7f3f
00000050: 4973 7d3f 9660 7e3f 9f38 7f3f 2134 7f3f
00000060: ea2e 7e3f b574 803f 6e4c 7e3f 50bd 803f
00000070: 72c5 7e3f d7e6 7e3f 2b12 7e3f 582e 7f3f
00000080: 33a6 7e3f bd01 7e3f 91ce 7f3f 41e4 803f
00000090: 0d32 803f a6ee 7f3f e21a 813f ea03 803f
000000a0: aaca 7f3f a874 813f cc23 7f3f db31 813f
000000b0: e7bc 803f b585 803f 76db 7e3f f68b 7f3f
000000c0: d5a6 7e3f 398e 7d3f 002c 803f 2760 803f
000000d0: 309e 7f3f da01 7e3f 966b 803f 6663 803f
000000e0: 93ea 7e3f 3da8 7e3f 0842 7e3f ac95 7f3f
000000f0: 9440 813f 88e9 7f3f 0ecc 7e3f 700c 7f3f
00000100: 3045 7f3f a291 803f adb7 7e3f b649 7f3f
00000110: 24fc 7c3f e760 7f3f c67a 803f a561 7e3f
00000120: 230a 7c3f 3dca 7d3f da30 7f3f aefa 7f3f
00000130: 1825 813f 601c 803f 1bd6 7f3f 6d1c 7e3f
00000140: 8b50 803f 1902 7f3f 3386 803f 834f 7f3f
00000150: 0649 7f3f 358c 803f baf6 7d3f aeba 803f
00000160: a032 7e3f c518 813f d11f 7f3f cf7d 803f
00000170: 3868 7f3f 7446 7f3f 94f4 803f 7a0f 803f
00000180: af25 7e3f 114e 7f3f 3b70 813f 0c6e 7e3f
00000190: 640b 813f 87c5 7f3f 2a98 7c3f dcd9 803f
000001a0: 95d8 7e3f 306d 803f ed13 813f 782d 7e3f
000001b0: 5005 7e3f 1ac3 803f 1b59 803f 97d5 7f3f
000001c0: 9cd2 7f3f b7f8 803f b537 813f a63c 813f
000001d0: 02d9 7e3f 69f4 7e3f b135 813f 805e 7f3f
000001e0: 8af4 7f3f 437d 7d3f a159 7e3f f08f 7e3f
000001f0: fd76 7f3f c3bd 7d3f f0c6 803f f219 7e3f

layers.1.norm.bias f4 [128]
-0.00062334206 -0.005905457 -0.007635501 -0.005107735 -0.0034961507 -0.0013133802 -0.0041452027 -0.0067661973
-0.004769512 0.0055546844 -0.0028656106 2.894421e-05 -0.003365149 -0.005824533 0.0001573028 -0.0045892494
0.0034820887 -0.0009929928 -0.0061675864 -0.00088264194 -0.002653422 -0.0030792584 -0.003223407 -0.0010685996
-0.0051097637 -0.0062701423 -0.006311805 0.0018286651 -0.0049866736 -0.0029249876 -0.00919712 -0.0019380581
-0.004302738 0.00475848 -0.003931953 0.0017541583 -0.0026761075 -0.0010192511 0.0001724822 -0.003100317
-0.0025591387 0.010599842 0.0019276448 -0.004418036 0.0031493604 -0.00354337 -0.005548764 -0.002941669
-0.005929948 -0.00091337366 0.0012863949 0.000979299 -0.0016588793 -0.008701756 -0.006378021 0.0014619336
-0.0020858 -0.00531269 -0.004388068 -0.0021165982 -0.004036785 -0.0040660147 -0.004257601 -0.003042962
-0.0020196491 0.0039148675 -0.0071782484 -0.0050144433 -0.0033034706 -0.0012696795 -0.0031731103 -0.0067212773
-0.0002165844 -0.0062810373 -0.0031174792 -0.0017873169 -0.0034806018 0.0042548813 -0.003121365 0.0032674267
0.0008587272 -0.0052969265 -0.006140751 -0.0040471754 -0.001771988 -0.004388154 -0.0060616136 -0.0001187456
-0.006997373 -0.0067992546 -0.0009737744 -0.0056627174 -0.0022293357 -0.0028922418 -0.0029164897 -0.006627153
-0.0070806807 -0.0039115166 0.0014141578 -0.0051100864 0.0013988399 -0.00021002078 -0.0009777939 0.0029060158
-0.006990538 -0.0021686084 -0.0029343553 -0.0044245287 -0.008121916 -7.9747246e-05 -0.0029022787 -0.0038026874
0.0017015175 -0.006419937 -0.0015964305 0.0007845567 -0.0043599633 -0.0032944097 -0.006334996 0.0031474833
-0.006750064 -0.007663189 -0.0070244325 -0.0013998944 -0.0012674765 -0.0069525344 0.0003224323 -0.0053010043
00000000: c767 23ba 9082 c1bb 3a33 fabb c95e a7bb
00000010: ad1f 65bb ba25 acba 7bd4 87bb fab6 ddbb
00000020: 9149 9cbb 1204 b63b f8cc 3bbb 38cd f237
00000030: d589 5cbb b9db bebb a6f1 2439 6a61 96bb
00000040: c133 643b 4f27 82ba 7719 cabb 1961 67ba
00000050: 09e5 2dbb 62cd 49bb cc3f 53bb 4110 8cba
00000060: ce6f a7bb c475 cdbb 42d3 cebb d2af ef3a
00000070: 4067 a3bb 26b1 3fbb 84af 16bc 7006 feba
00000080: fbfd 8cbb 06ed 9b3b 9dd7 80bb c9eb e53a
00000090: a261 2fbb 6498 85ba 57dc 3439 b02e 4bbb
000000a0: 39b7 27bb f6aa 2d3c 07a9 fc3a 2cc5 90bb
000000b0: 8065 4e3b e237 68bb 68d2 b5bb 04c9 40bb
000000c0: 0250 c2bb 786f 6fba 409c a83a d25b 803a
000000d0: c16e d9ba cf91 0ebc b8fe d0bb 5a9e bf3a
000000e0: ebb1 08bb 1316 aebb c8c9 8fbb a0b6 0abb
000000f0: 0247 84bb 343c 85bb 5983 8bbb 6e6c 47bb
00000100: 175c 04bb 4a48 803b 8337 ebbb 3350 a4bb
00000110: 0a7f 58bb 606b a6ba f5f3 4fbb 293e dcbb
00000120: ef1a 63b9 29d1 cdbb 9f4e 4cbb 6744 eaba
00000130: cf1a 64bb 886c 8b3b d18f 4cbb 5322 563b
00000140: 351c 613a d791 adbb 5a38 c9bb 2b9e 84bb
00000150: 0d42 e8ba 81ca 8fbb 80a0 c6bb 0f07 f9b8
00000160: 384a e5bb 48cc debb e544 7fba 518e b9bb
00000170: 0c1a 12bb c48b 3dbb 9422 3fbb 9728 d9bb
00000180: 0e05 e8bb 2e2c 80bb 435b b93a 8372 a7bb
00000190: 4759 b73a 0639 5cb9 5229 80ba db72 3e3b
000001a0: e210 e5bb 361f 0ebb 504e 40bb a3fb 90bb
000001b0: c911 05bc fa3d a7b8 2834 3ebb 8236 79bb
000001c0: 7405 df3a 565e d2bb 523f d1ba b5aa 4d3a
000001d0: 06de 8ebb 06e7 57bb cc95 cfbb 0246 4e3b
000001e0: a42f ddbb 7d1b fbbb 362d e6bb a97c b7ba
000001f0: 7421 a6ba 16d2 e3bb 210c a939 0cb4 adbb
