best_model.pth (torch, 677922 bytes, 54 tensors)

embedding_module.data_embed.weight f4 [128, 15]
-0.076229066 0.11352893 0.14902884 0.017865175 0.07437696 0.033077594 -0.051993262 -0.20390315
0.02788405 -0.20387572 0.22589362 -0.17445132 0.11601286 -0.18270636 0.01773478 0.078859314
0.13256921 -0.067916386 0.17656271 -0.14469463 -0.2295056 0.19454241 0.24935704 0.19775526
0.14304711 -0.16153638 -0.015918283 -0.06566264 0.21946415 0.03480714 -0.1313742 0.2574553
0.17442153 0.15319522 0.2555554 -0.25527272 -0.04129252 -0.17024174 -0.18057089 -0.1011042
-0.06688054 -0.18042974 -0.12219381 -0.20730434 -0.1395039 -0.031435303 -0.1925248 0.1835583
0.013058209 -0.18479507 0.07476041 -0.24226767 0.20127463 0.09849846 -0.18482457 -0.23980108
-0.24660844 0.09395136 0.1851443 0.20338346 -0.111156784 -0.25556675 0.15319417 -0.059107583
-0.058992513 -0.14325187 -0.1230116 0.1273145 0.033701327 -0.1523675 -0.031562857 0.090084724
0.1326908 -0.18209459 -0.02279041 0.21149264 -0.10297562 0.19734608 -0.036171295 0.08031737
0.16074514 -0.20133936 0.15283966 -0.051073115 -0.06930811 -0.08758352 0.0884292 0.16215184
0.095050275 0.106258616 -0.066446036 -0.055637624 -0.021528156 -0.1854985 0.16751716 -0.1773472
0.0039472166 0.11615547 0.20077465 0.17672081 -0.255955 -0.0878373 0.011351948 -0.017006688
0.1560852 0.07885385 -0.020188885 -0.124950126 -0.24125451 -0.040140506 -0.09676527 -0.13910864
0.09254162 0.25352925 -0.18278635 -0.01900366 -0.20055024 0.10763729 0.108202346 -0.1729807
0.102544166 -0.23649414 -0.039728634 -0.05775519 0.078366235 0.22940528 -0.043784082 -0.060785204
0.15517747 -0.014023066 -0.12625824 0.06051687 -0.053939946 0.05286481 0.019772438 -0.01263243
0.11740069 -0.13327159 0.22281781 -0.055534285 -0.13008712 0.04606947 0.043950282 0.16762297
-0.17020889 -0.1668824 0.24414952 0.038046792 0.015608326 0.054571226 0.10099382 -0.18695332
-0.003620848 0.24561457 -0.08969938 -0.0385331 0.20387794 0.044104923 -0.013968426 -0.1291503
0.124648005 -0.14197426 0.038307816 0.064570576 -0.19342388 0.206495 0.05643029 -0.22396031
-0.15814433 0.23718885 0.13989474 -0.019934842 0.19277118 0.24312681 0.12722646 0.24674965
-0.0023391438 0.20334943 -0.20907317 -0.16789448 -0.20555584 -0.19698317 -0.048337866 -0.108973235
0.006396592 0.22344397 0.25217113 0.13694997 -0.07022616 0.022948908 0.024042832 0.0090181455
0.06065345 0.11365113 -0.044738654 -0.056150764 0.14146213 0.03795765 -0.11808185 0.12682697
-0.18973595 0.25667116 -0.17261167 -0.23479529 0.24265575 -0.16771632 -0.21962428 0.077078596
-0.17505229 -0.18326348 0.115342565 -0.19459231 0.18134052 -0.055589955 -0.004014123 0.0779987
-0.2162605 0.04023082 0.1497087 0.12891951 -0.17445423 -0.05040749 0.18480079 -0.061579783
0.10051639 0.21249333 0.21550304 0.22749746 0.06248375 -0.10607861 -0.19363706 -0.2441228
-0.03265172 0.004010024 0.2266535 -0.08147337 0.21012579 0.017850898 0.18457392 -0.24823378
-0.075137645 -0.07039252 -0.19044916 0.10527 -0.06329054 -0.17241995 -0.031923726 -0.048297763
-0.14767452 -0.17851193 -0.2191327 -0.15504688 -0.118224785 0.024930997 0.08661994 0.19124621
00000000: fc1d 9cbd db81 e83d 049b 183e fd59 923c
00000010: f352 983d 5f7c 073d e3f6 54bd fdcb 50be
00000020: 176d e43c ccc4 50be a850 673e 5ea3 32be
00000030: 2698 ed3d 6017 3bbe 8848 913c fe80 a13d
00000040: 39c0 073e bf17 8bbd dbcc 343e d42a 14be
00000050: 8403 6bbe 2036 473e 7457 7f3e 5b80 4a3e
00000060: f17a 123e cb69 25be 0f67 82bc 227a 86bd
00000070: 36bb 603e ee91 0e3d f586 06be 2ed1 833e
00000080: 8f9b 323e 35df 1c3e 28d8 823e 1bb3 82be
00000090: 5822 29bd da53 2ebe 93e7 38be b80f cfbd
000000a0: aaf8 88bd 93c2 38be c040 fabd 9747 54be
000000b0: 1cda 0ebe 4ec2 00bd 3925 45be b5f6 3b3e
000000c0: 19f2 553c eb3a 3dbe fc1b 993d 0415 78be
000000d0: f01a 4e3e 90b9 c93d a742 3dbe 6a8e 75be
000000e0: ec86 7cbe 9269 c03d 7896 3d3e c143 503e
000000f0: 2ba6 e3bd a5d9 82be efde 1c3e cb1a 72bd
00000100: 22a2 71bd 9eb0 12be 81ed fbbd bb5e 023e
00000110: 670a 0a3d 3a06 1cbe 0e48 01bd 577e b83d
00000120: 19e0 073e 0177 3abe f4b2 babc 8791 583e
00000130: e2e4 d2bd 1715 4a3e 5a28 14bd 6f7d a43d
00000140: 609a 243e e82b 4ebe 0082 1c3e 0b32 51bd
00000150: 69f1 8dbd fd5e b3bd 5e1a b53d 220b 263e
00000160: b8a9 c23d 1e9e d93d dc14 88bd 47e4 63bd
00000170: d15b b0bc 52f3 3dbe 9e89 2b3e 819a 35be
00000180: a757 813b ebe2 ed3d df97 4d3e 4df6 343e
00000190: 890c 83be 0be4 b3bd 85fd 393c 9c51 8bbc
000001a0: ccd4 1f3e 217e a13d 2963 a5bc dae5 ffbd
000001b0: 6c0b 77be 5f6a 24bd df2c c6bd 7f72 0ebe
000001c0: 7686 bd3d 96ce 813e 582c 3bbe 90ad 9bbc
000001d0: 0b5d 4dbe f170 dc3d 3199 dd3d da21 31be
000001e0: ad02 d23d 852b 72be 7eba 22bd b590 6cbd
000001f0: 7a7e a03d 38e9 6a3e f056 33bd e8f9 78bd
00000200: d8e6 1e3e 00c1 65bc d749 01be 8ae0 773d
00000210: 22f0 5cbd c588 583d cff9 a13c 40f8 4ebc
00000220: c66f f03d 5978 08be 5a2a 643e eb77 63bd
00000230: 8f35 05be 57b3 3c3d 3605 343d 5ba5 2b3e
00000240: 3d4b 2ebe 38e3 2abe 5502 7a3e f4d6 1b3d
00000250: 10ba 7f3c 1486 5f3d d9d5 ce3d b170 3fbe
00000260: c04b 6dbb 6382 7b3e 4fb4 b7bd e2d4 1dbd
00000270: 61c5 503e 5da7 343d d3db 64bc fa3f 04be
00000280: 7447 ff3d b361 11be a8e8 1c3d 943d 843d
00000290: e910 46be 6d73 533e 7323 673d da55 65be
000002a0: 96f0 21be a2e1 723e 9140 0f3e 654e a3bc
000002b0: cf65 453e 3cf6 783e a747 023e f1ab 7c3e
000002c0: 524c 19bb d53a 503e 4717 56be 88ec 2bbe
000002d0: 3b7d 52be f5b5 49be edfd 45bd 5c2d dfbd
000002e0: 819a d13b 7fce 643e 931c 813e 9d3c 0c3e
000002f0: bcd2 8fbd 59ff bb3c 79f5 c43c d8c0 133c
00000300: c16f 783d ecc1 e83d e13f 37bd 58fe 65bd
00000310: 73db 103e 7b79 1b3d e6d4 f1bd eede 013e
00000320: 244a 42be 676a 833e 1dc1 30be 2d6e 70be
00000330: c07a 783e d4bd 2bbe 30e5 60be 62db 9d3d
00000340: e840 33be 6ca9 3bbe b938 ec3d 3543 47be
00000350: 54b1 393e 4bb2 63bd e888 83bb c8bd 9f3d
00000360: 6473 5dbe 13c9 243d 3d4d 193e 7a03 043e
00000370: 21a4 32be 1678 4ebd 6b3c 3d3e 153b 7cbd
00000380: 89db cd3d da97 593e d4ac 5c3e 18f5 683e
00000390: f6ee 7f3d be3f d9bd cb48 46be 54fb 79be
000003a0: cfbd 05bd 8566 833b db17 683e 83db a6bd
000003b0: 372b 573e 0c3c 923c f200 3d3e ff30 7ebe
000003c0: c4e1 99bd f429 90bd 1b05 43be cc97 d73d
000003d0: 789e 81bd db8e 30be 74c2 02bd e0d3 45bd
000003e0: fd37 17be d5cb 36be 5364 60be 9cc4 1ebe
000003f0: d61f f2bd 173c cc3c cc65 b13d 0cd6 433e

embedding_module.data_embed.bias f4 [128]
-0.12722367 0.013886551 0.07970115 -0.13111997 -0.0560375 -0.20971203 0.022529764 -0.12040317
0.17542033 0.051472858 0.16885796 -0.10684966 -0.21459588 0.25702438 -0.05365867 -0.07821613
0.16164571 0.19931565 -0.19621173 0.10573249 -0.22455448 -0.13776837 -0.25710344 0.2520381
0.028036479 0.19999245 -0.065979816 -0.22417454 0.08931189 0.085063316 -0.05349875 0.24334055
0.23063697 -0.13000655 0.25443408 -0.14475396 -0.01752824 -0.07379993 -0.14551714 -0.02539386
-0.11075834 0.007961531 -0.09387177 -0.093211055 -0.022841956 0.20987776 0.24321738 -0.2254283
-0.22696413 -0.1527776 0.014333062 -0.0019508998 0.034273386 -0.1733083 -0.21361633 -0.16054225
-0.13817643 -0.06762923 -0.091297545 -0.0733508 -0.031142674 -0.08767415 -0.10331598 0.119703345
-0.16156508 -0.041633084 -0.21218944 0.18538152 -0.10432286 0.2609875 -0.0655996 0.19832891
-0.25369492 0.060587555 -0.1808676 0.20596899 -0.056212373 0.050652463 -0.059283484 -0.16975623
0.25370535 -0.03590157 -0.026881814 0.18193465 0.026561262 -0.1989065 0.024374703 -0.049913842
-0.24813491 0.17994544 0.18737656 -0.118346415 0.08120511 -0.21464336 0.14564928 -0.15138371
-0.027957616 0.24511896 -0.032155078 0.17756371 -0.16120245 0.08578014 0.024163315 0.0010601197
-0.016645482 -0.07716232 0.16124062 0.07532767 0.09801127 0.25054386 0.20341086 -0.052309938
-0.07093772 0.0806803 0.1222204 -0.2165811 0.12427709 0.15272126 -0.06479116 0.132367
-0.098415814 0.096746735 0.107694685 -0.18100142 -0.20118347 0.06442589 0.025128296 -0.21291599
00000000: ec46 02be 6b84 633c 5b3a a33d 5044 06be
00000010: 9487 65bd c0be 56be 5790 b83c f095 f6bd
00000020: 63a1 333e 34d5 523d 1ae9 2c3e ffd3 dabd
00000030: 06bf 5bbe b398 833e 32c9 5bbd c72f a0bd
00000040: 7486 253e 6719 4c3e baeb 48be 478a d83d
00000050: 9cf1 65be 2713 0dbe 10a3 83be 230b 813e
00000060: c2ac e53c d2ca 4c3e 6d20 87bd 038e 65be
00000070: 27e9 b63d ad35 ae3d 8121 5bbd 442e 793e
00000080: 192c 6c3e 7020 05be 2f45 823e 623a 14be
00000090: 6297 8fbc 6b24 97bd 7202 15be c906 d0bc
000000a0: 45d5 e2bd 1571 023c d83f c0bd 70e5 bebd
000000b0: 0e1f bbbc 32ea 563e fa0d 793e add6 66be
000000c0: 4969 68be bb71 1cbe 38d5 6a3c 56b5 ffba
000000d0: 4062 0c3d bb77 31be 3dbe 5abe 3065 24be
000000e0: 1f7e 0dbe 3281 8abd 35fa babd f238 96bd
000000f0: ec1e ffbc 818e b3bd 5497 d3bd 0727 f53d
00000100: 5171 25be 7487 2abd 3048 59be a7d4 3d3e
00000110: 39a7 d5bd 27a0 853e 1559 86bd bc16 4b3e
00000120: 4de4 81be a82a 783d 5b35 39be 89e9 523e
00000130: f23e 66bd f578 4f3d 3dd3 72bd 94d4 2dbe
00000140: abe5 813e 860d 13bd 4037 dcbc 144d 3a3e
00000150: 0197 d93c 25ae 4bbe 75ad c73c 7572 4cbd
00000160: 1417 7ebe 9e43 383e a4df 3f3e 9b5f f2bd
00000170: dd4e a63d 78cb 5bbe 1625 153e 5504 1bbe
00000180: 5f07 e5bc 7700 7b3e 0bb5 03bd 43d3 353e
00000190: 4112 25be 7fad af3d 25f2 c53c b7f3 8a3a
000001a0: 1b5c 88bc 4707 9ebd 431c 253e 6545 9a3d
000001b0: 22ba c83d 4947 803e f04a 503e f242 56bd
000001c0: cc47 91bd b73b a53d b04e fa3d 70c7 5dbe
000001d0: fd84 fe3d f662 1c3e 3ab1 84bd 378b 073e
000001e0: 3b8e c9bd 2723 c63d 088f dc3d 7058 39be
000001f0: 0a03 4ebe b9f1 833d dbd9 cd3c a606 5abe

embedding_module.spatial_embed.weight f4 [128, 2]
0.6029734 0.44592682 -0.5396665 -0.30658412 -0.00837448 0.24652943 -0.035923015 -0.107819945
0.12379932 -0.6399653 0.15730101 -0.6505054 0.014807209 -0.48783037 -0.36963698 0.51220477
-0.0609935 0.6278617 0.03098454 -0.031716812 -0.13665305 -0.6708636 0.24617362 -0.39537883
0.4339404 -0.5768553 0.3440137 -0.6368284 -0.21828555 0.31277823 0.4231255 -0.19732682
0.091993205 -0.6106439 -0.11992695 0.5213129 0.6345087 0.6832523 -0.31536692 -0.15611252
-0.61014336 0.5634669 0.2842461 -0.43875647 -0.647 0.6177951 -0.61864346 -0.38283128
0.6246533 -0.66497916 0.422118 0.47172627 0.3132247 0.54200137 -0.18985093 -0.3143117
0.45520866 -0.020160811 0.5568735 -0.41564542 0.6889938 0.38211793 0.00877865 0.3937853
-0.20367752 0.64835817 -0.36965996 -0.023777356 0.6875749 -0.44817492 -0.12869151 -0.65347594
0.4622942 0.267671 -0.6009969 -0.7005318 0.4756388 -0.6468483 0.23352353 -0.32935947
-0.3646103 -0.21766874 -0.3477028 -0.44598228 -0.21777835 -0.4719941 -0.17719796 0.6315522
0.3619054 0.06420953 0.44385582 0.5853111 0.42824587 0.5490773 0.04994299 -0.6382669
0.18983223 -0.11210626 -0.1379551 -0.018779173 -0.662999 0.6428819 0.40636152 0.04828448
-0.089520514 -0.35711417 0.11399385 0.33669958 0.24585027 0.05819124 0.58092666 0.52288
-0.6981005 -0.07210305 -0.1452193 0.4957011 0.59968364 0.3162833 0.42145076 0.16488737
0.25813794 0.31782526 -0.45328224 0.547525 -0.20814359 -0.47717065 -0.38959745 -0.43634775
-0.17301084 -0.44723362 0.5391297 -0.4429353 0.5372872 0.46863 0.6925857 0.6010238
-0.25696287 -0.24277228 -0.15835541 -0.5459545 0.10243216 -0.37378383 -0.6986515 0.22661555
0.35887402 -0.3688123 0.39103293 -0.6333394 -0.649829 -0.6099931 -0.3465044 0.15461399
0.6867247 0.24339442 -0.62310207 0.5282991 -0.27015898 0.28559577 -0.15958247 -0.44531247
-0.64563125 -0.4945681 -0.046129875 -0.68517405 -0.6074555 0.27456784 0.009219193 0.20388521
0.27513325 0.45490435 -0.08865489 -0.40374902 -0.5233423 0.3877089 0.4312959 -0.646535
0.14491726 -0.6566676 -0.39740518 0.14218962 0.53288645 0.40020788 -0.34057805 0.33374923
0.3805897 0.3272253 0.5156631 0.03660705 0.35646176 -0.20096953 0.25003448 -0.5126444
0.47409195 0.34945372 -0.034107897 0.25852272 0.3033633 0.6452702 -0.364308 -0.5807841
0.5698768 -0.506592 0.46878296 -0.62842155 -0.07189891 0.025637764 0.5662998 -0.43088835
-0.46517372 0.63348633 0.07785947 0.17203155 0.67813593 0.29532948 0.4939756 0.55725175
-0.44522154 0.37571168 0.6847476 -0.21537742 0.29192555 -0.18067628 0.37000486 -0.4431393
-0.47444624 0.30900547 0.1395974 0.5490464 0.568026 -0.61723876 -0.7013706 -0.6943531
0.41663387 -0.51418966 0.64449114 0.38472566 -0.19660279 -0.5889695 -0.18766654 0.6186712
0.61868083 0.5612969 0.5710568 0.08520667 -0.6182832 0.09213411 -0.4182149 0.4063332
0.70127267 0.63569224 0.50744456 -0.48668465 -0.25442752 -0.04274002 -0.452065 -0.6014823
00000000: 775c 1a3f 8550 e43e 9527 0abf 98f8 9cbe
00000010: 1d35 09bc 3672 7c3e 0324 13bd b4d0 dcbd
00000020: 7f8a fd3d c4d4 23bf 8413 213e 8687 26bf
00000030: f099 723c e7c4 f9be 0f41 bdbe da1f 033f
00000040: 52d4 79bd 8bbb 203f 4ad3 fd3c 7de9 01bd
00000050: c7ee 0bbe b8bd 2bbf f014 7c3e 186f cabe
00000060: 702d de3e caac 13bf 9022 b03e 3007 23bf
00000070: 3f86 5fbe 7824 a03e e8a3 d83e 0b10 4abe
00000080: ef66 bc3d 2953 1cbf 439c f5bd c374 053f
00000090: 2a6f 223f 9fe9 2e3f c677 a1be f6db 1fbe
000000a0: 5b32 1cbf 5e3f 103f b488 913e b0a4 e0be
000000b0: cba1 25bf d227 1e3f 6b5f 1ebf 7602 c4be
000000c0: 47e9 1f3f 133c 2abf da1f d83e 1b86 f13e
000000d0: fd5e a03e 9ac0 0a3f 4868 42be 77ed a0be
000000e0: 1c11 e93e 4928 a5bc 438f 0e3f 7acf d4be
000000f0: e661 303f f6a4 c33e 54d4 0f3c 3a9e c93e
00000100: d790 50be cdfa 253f 1244 bdbe bbc8 c2bc
00000110: e904 303f 2f77 e5be b5c7 03be 334a 27bf
00000120: d3b1 ec3e 2c0c 893e efda 19bf 0d56 33bf
00000130: ee86 f33e da97 25bf cb20 6f3e cea1 a8be
00000140: 34ae babe 8ee4 5ebe 1a06 b2be ca57 e4be
00000150: 4a01 5fbe 36a9 f1be 6273 35be 68ad 213f
00000160: aa4b b93e 4980 833d 1241 e33e f3d6 153f
00000170: 0b43 db3e 5490 0c3f 0591 4c3d 7665 23bf
00000180: 6163 423e f897 e5bd 1a44 0dbe c8d6 99bc
00000190: 4dba 29bf e893 243f 9e0e d03e f2c5 453d
000001a0: 8856 b7bd abd7 b6be 9c75 e93d e363 ac3e
000001b0: 2cc0 7b3e f059 6e3d 9cb7 143f 77db 053f
000001c0: b7b6 32bf c4aa 93bd 5eb4 14be 89cc fd3e
000001d0: de84 193f e2ef a13e 65c8 d73e 3cd8 283e
000001e0: a82a 843e feb9 a23e 9c14 e8be 992a 0c3f
000001f0: 9823 55be b64f f4be 5179 c7be f968 dfbe
00000200: c129 31be cefb e4be 6704 0a3f 6ac8 e2be
00000210: a78b 093f 45f0 ef3e 4c4d 313f b2dc 193f
00000220: a390 83be 4c99 78be ec27 22be adc3 0bbf
00000230: f4c7 d13d 9860 bfbe d3da 32bf e80d 683e
00000240: 56be b73e f7d4 bcbe 7835 c83e 8822 22bf
00000250: 315b 26bf 8228 1cbf 0669 b1be 2153 1e3e
00000260: 31cd 2f3f 633c 793e 9e83 1fbf 9c3e 073f
00000270: 4752 8abe 9c39 923e 9669 23be ffff e3be
00000280: 1748 25bf 0838 fdbe aef2 3cbd 9167 2fbf
00000290: 3482 1bbf 2894 8c3e 190c 173c 49c7 503e
000002a0: 44de 8c3e 39e9 e83e b290 b5bd 31b8 cebe
000002b0: c3f9 05bf c881 c63e d1d2 dc3e 5183 25bf
000002c0: 3165 143e 5e1b 28bf b178 cbbe 289a 113e
000002d0: 3f6b 083f 0ce8 cc3e 3f60 aebe 2ee1 aa3e
000002e0: a7dc c23e 138a a73e 7f02 043f 46f1 153d
000002f0: 2882 b63e f5ca 4dbe 8504 803e aa3c 03bf
00000300: 2ebc f23e 99eb b23e b9b4 0bbd 175d 843e
00000310: 6f52 9b3e 6e30 253f 9486 babe 44ae 14bf
00000320: 72e3 113f 03b0 01bf 5204 f03e 3ce0 20bf
00000330: bc3f 93bd 4a06 d23c 06f9 103f 669d dcbe
00000340: 402b eebe 292c 223f c974 9f3d 0a29 303e
00000350: 519a 2d3f 6d35 973e 5fea fc3e 0da8 0e3f
00000360: 14f4 e3be 485d c03e 9e4b 2f3f e68b 5cbe
00000370: 4477 953e 3403 39be 4771 bd3e 28e3 e2be
00000380: 9eea f2be f735 9e3e 9ff2 0e3e 4e8e 0c3f
00000390: 276a 113f 5c03 1ebf 068d 33bf 20c1 31bf
000003a0: 0951 d53e efa1 03bf 5ffd 243f c3fa c43e
000003b0: 3e52 49be b5c6 16bf a82b 40be 3c61 1e3f
000003c0: de61 1e3f 27b1 0f3f c730 123f d680 ae3d
000003d0: cf47 1ebf cfb0 bc3d 4320 d6be e80a d03e
000003e0: 9b86 333f babc 223f e3e7 013f bb2e f9be
000003f0: 5344 82be 2910 2fbd 1075 e7be befa 19bf

embedding_module.spatial_embed.bias f4 [128]
-0.17542568 -0.018898016 -0.53105587 -0.69990796 0.21319474 0.19230048 0.39300805 0.25213215
0.43403625 -0.3404738 -0.66298914 -0.35608262 -0.22174653 -0.67463076 0.04530852 -0.33767882
0.30481425 -0.5540216 -0.5248156 0.5887136 0.50950927 0.099564835 0.18005653 -0.51062894
-0.6274863 0.033886943 -0.42976773 -0.69760096 0.20122503 -0.6655046 0.102678835 0.029274078
-0.5326434 -0.043413404 -0.50323033 -0.22152087 -0.24725935 -0.64709514 0.61615306 -0.6917375
0.15612507 0.4017795 -0.1519008 0.41097078 -0.5415592 0.5291705 0.47889042 0.24913625
0.13457039 0.006712663 -0.16898347 0.6691396 -0.10599003 0.32561147 -0.04641559 0.29441836
0.052490693 -0.31650236 -0.34770834 0.34407082 0.41146347 0.017200997 0.38608927 -0.5477716
0.45391217 0.14259085 0.47860804 0.6816931 0.36838752 -0.46699938 0.5021538 -0.024159418
0.20042871 0.681267 -0.36056432 -0.24676496 0.07527009 -0.041167293 0.65570384 -0.60284215
-0.47403285 0.10667453 -0.50485146 -0.38913143 -0.28949127 0.17112778 -0.16150002 -0.14392778
0.25438446 0.3637776 0.4329264 -0.20464337 -0.09985523 0.10256491 -0.6367229 -0.55732805
-0.013707023 0.045294143 -0.35408264 0.24930885 -0.16019998 0.18400632 -0.2867691 0.6962256
-0.2506891 -0.05528022 0.39229405 0.3992694 -0.5354332 0.56631523 0.34418184 -0.4674489
-0.20337224 0.5438349 -0.4940595 -0.53562367 0.31204933 -0.28949007 -0.6167939 -0.22369048
-0.14968938 0.4920301 -0.1917688 0.12063114 -0.29283196 -0.2983036 0.43876952 0.6551922
00000000: caa2 33be 03d0 9abc 47f3 07bf 2b2d 33bf
00000010: b94f 5a3e 6bea 443e 5a38 c93e 7717 813e
00000020: 003a de3e 9552 aebe a8b9 29bf 7650 b6be
00000030: 8611 63be 9ab4 2cbf 6d95 393d 3de4 acbe
00000040: 9d10 9c3e 5cd4 0dbf 515a 06bf efb5 163f
00000050: 336f 023f a6e8 cb3d bd60 383e 94b8 02bf
00000060: f1a2 20bf 09cd 0a3d 840a dcbe fa95 32bf
00000070: ef0d 4e3e 825e 2abf 4849 d23d 31d0 ef3c
00000080: 515b 08bf 41d2 31bd b4d3 00bf 5ed6 62be
00000090: 8e31 7dbe 07a8 25bf 35bc 1d3f b515 31bf
000000a0: 40df 1f3e 0bb6 cd3e e28b 1bbe c36a d23e
000000b0: a0a3 0abf b877 073f 2031 f53e 931d 7f3e
000000c0: d2cc 093e e6f5 db3b 010a 2dbe bc4c 2b3f
000000d0: 4d11 d9bd 8cb6 a63e 461e 3ebd 01be 963e
000000e0: 7b00 573d 990c a2be d406 b2be 0d2a b03e
000000f0: 57ab d23e 1be9 8c3c 7ead c53e c23a 0cbf
00000100: 2d67 e83e 5603 123e 1d0c f53e 7083 2e3f
00000110: 4a9d bc3e 8b1a efbe 278d 003f f9e9 c5bc
00000120: 2f3d 4d3e 8467 2e3f e39b b8be f4af 7cbe
00000130: 3427 9a3d 099f 28bd 35dc 273f dd53 1abf
00000140: 6fb4 f2be 2d78 da3d f23d 01bf 3c3c c7be
00000150: 3338 94be 1f3c 2f3e 4360 25be ce61 13be
00000160: ae3e 823e 0f41 ba3e 87a8 dd3e 088e 51be
00000170: e680 ccbd 8d0d d23d 4600 23bf 0dad 0ebf
00000180: 6c93 60bc 5a86 393d 524a b5be d24a 7f3e
00000190: 770b 24be 276c 3c3e 66d3 92be d73b 323f
000001a0: 525a 80be 836d 62bd c4da c83e 0a6d cc3e
000001b0: 2612 09bf 09fa 103f 9a38 b03e 7655 efbe
000001c0: d040 50be c438 0b3f 5ef5 fcbe a21e 09bf
000001d0: eec4 9f3e 0b38 94be 34e6 1dbf 1e0f 65be
000001e0: 2c48 19be 5feb fb3e 0a5f 44be 760d f73d
000001f0: 12ee 95be 40bb 98be 66a6 e03e adba 273f

layers.0.linear.weight f4 [128, 128]
0.006700092 0.07442073 -0.0003184753 -0.02960981 -0.016675612 0.06759626 0.04039543 0.01977208
-0.082927115 0.06071748 -0.06405124 0.04545489 0.03458629 -0.04663615 -0.08240918 0.06314527
0.075188845 -0.03954323 -0.0713923 0.014734772 -0.047768045 -0.038177904 0.06477413 0.039522387
0.016623085 0.026607947 -0.02576007 0.0110195065 -0.022915252 -0.0025293468 -0.042148188 -0.006929404
-0.0376183 -0.035552282 -0.07564726 -0.08724979 0.015350403 0.058854036 -0.031985484 0.051323906
-0.02561192 0.00013193347 -0.0070594437 -0.0036340426 -0.015754746 -0.0034245534 0.04090153 0.036420718
-0.012649322 0.03022488 -0.07476798 -0.080218844 -0.058838986 0.058477324 0.056708273 -0.005398462
-0.0235333 -0.0100207245 0.087648876 0.0072818147 0.04210089 -0.024332674 0.028420338 0.08315563
-0.000936553 0.019369274 -0.087804854 0.038223807 -0.08039091 -0.08584716 0.05499675 -0.081029765
-0.063837804 0.048647072 0.079931654 -0.032857746 0.08703098 -0.057927467 -0.08497413 -0.010537392
0.048454218 0.07792024 0.071231894 -0.07790906 0.0780313 0.085628495 0.07386635 -0.07495602
-0.039853517 -0.046327613 -0.052676912 -0.010741826 0.033262607 0.06864033 -0.048869826 -0.074224316
-0.0317354 -0.08151673 -0.047090605 0.03372247 -0.017533304 -0.06684943 -0.065560795 -0.046224844
0.055875596 0.056826465 -0.026373982 0.06345697 0.050452795 -0.029350653 0.040353186 0.039557382
-0.023881096 -0.038113438 0.055094235 -0.029127121 0.012429932 -0.0160107 -0.08430957 -0.008806154
0.05075477 -0.028572118 0.07870072 -0.058840036 -0.05390554 -0.05123115 0.07831322 -0.054539338
0.08137738 0.034498032 -0.014207522 -0.04850386 0.0710944 -0.011533393 -0.07714832 -0.08521034
-0.05505891 0.029639117 -0.08974731 0.07657737 -0.02737134 -0.074701846 -0.073075294 -0.05719699
-0.049483564 0.041762896 -0.028976984 -0.052304063 0.008778395 0.08892067 -0.015066751 -0.08550626
-0.00406721 0.01621669 -0.0075938734 -0.0904423 0.03678073 0.024859319 0.06593243 0.04195666
0.05329848 0.04519865 0.0030061556 0.08067055 0.0632421 0.07208677 -0.08372136 -0.051809363
-0.0036261987 0.03379625 0.056117803 0.061244063 0.04582658 -0.06035879 0.047202628 0.07217481
0.049579207 0.032308906 -0.024549073 0.003415961 -0.044986427 0.07954398 -0.034508567 0.008909088
0.0543901 -0.046207324 -0.062250458 -0.0071963957 0.069558844 -0.020365933 0.048594113 -0.04033596
-0.034995697 -0.014006703 -0.0018672423 0.0041307346 -0.08270835 0.03700377 0.089651674 0.07344968
0.053193692 0.07251303 0.06294862 0.025175307 0.054925904 -0.03132429 0.06870673 0.038202517
-0.0044816616 0.08043232 0.05201892 0.039638475 -0.016667444 -0.062031396 0.08466857 -0.08703756
-0.01613518 0.025272306 -0.050447326 0.018609544 0.04842306 -0.01648915 -0.0836324 0.028035305
-0.032576017 0.032995578 -0.013038442 0.03840493 -0.037158202 0.046068802 0.040979616 -0.06641012
-0.05169013 0.07234363 -0.04067768 0.006680134 -0.018373018 -0.03663528 0.059275843 0.0013964816
0.06755122 0.053911246 -0.065218315 0.060436558 0.015456632 0.036940485 -0.04578434 0.06162478
-0.07502338 -0.019494265 0.08392312 -0.0026607253 -0.031776886 0.07720486 0.0076598097 0.06969667
00000000: 728c db3b e569 983d 08f9 a6b9 4690 f2bc
00000010: 4b9b 88bc e86f 8a3d ae75 253d 0ff9 a13c
00000020: b1d5 a9bd e4b2 783d 4c2d 83bd e82e 3a3d
00000030: 5baa 0d3d 8c05 3fbd 25c6 a8bd 4f52 813d
00000040: 9cfc 993d 15f8 21bd 2036 92bd 1d6a 713c
00000050: 6da8 43bd 6f60 1cbd 4da8 843d 3ae2 213d
00000060: 232d 883c e9f8 d93c c806 d3bc 298b 343c
00000070: c4b8 bbbc 66c3 25bb 94a3 2cbd 0e10 e3bb
00000080: a615 1abd 459f 11bd f3ec 9abd 05b0 b2bd
00000090: 4280 7b3c ee10 713d 3603 03bd 0439 523d
000000a0: 17d0 d1bc 9f57 0a39 e852 e7bb 1e29 6ebb
000000b0: 1910 81bc 796e 60bb 5d88 273d e42d 153d
000000c0: 1a3f 4fbc 2b9a f73c f41f 99bd c749 a4bd
000000d0: 2601 71bd eb85 6f3d ef46 683d 95e5 b0bb
000000e0: e8c8 c0bc f72d 24bc 4181 b33d 4a9c ee3b
000000f0: fc71 2c3d 5155 c7bc c5d1 e83c 804d aa3d
00000100: 0283 75ba 50ac 9e3c 08d3 b3bd 9190 1c3d
00000110: fda3 a4bd a3d0 afbd 4644 613d eff2 a5bd
00000120: 65bd 82bd 2742 473d 35b3 a33d d895 06bd
00000130: 4c3d b23d 5a45 6dbd eb06 aebd 07a5 2cbc
00000140: ee77 463d a694 9f3d 07e2 913d c98e 9fbd
00000150: e0ce 9f3d fe5d af3d 3e47 973d 8b82 99bd
00000160: 713d 23bd 06c2 3dbd bfc3 57bd 7cfe 2fbc
00000170: 5f3e 083d 4d93 8c3d ba2b 48bd eb02 98bd
00000180: fbfc 01bd 3ef2 a6bd 14e2 40bd 9320 0a3d
00000190: 01a2 8fbc 5be8 88bd bd44 86bd 4356 3dbd
000001a0: cfdd 643d dec2 683d 400e d8bc baf5 813d
000001b0: 97a7 4e3d c870 f0bc 6249 253d ec06 223d
000001c0: 4aa2 c3bc d61c 1cbd 7eaa 613d 009c eebc
000001d0: eaa6 4b3c df28 83bc 7faa acbd b047 10bc
000001e0: 3ce4 4f3d 1310 eabc d82d a13d 4002 71bd
000001f0: 0ecc 5cbd c1d7 51bd ae62 a03d a464 5fbd
00000200: 2fa9 a63d cf4d 0d3d abc6 68bc fcab 46bd
00000210: f199 913d 8ef6 3cbc f0ff 9dbd c282 aebd
00000220: 7485 61bd bccd f23c 70cd b7bd 99d4 9c3d
00000230: dc39 e0bc 48fd 98bd 80a8 95bd 6447 6abd
00000240: 47af 4abd 920f 2b3d 2461 edbc c93c 56bd
00000250: 42d3 0f3c 0a1c b63d 89da 76bc e81d afbd
00000260: 3b46 85bb ddd8 843c 07d6 f8bb d039 b9bd
00000270: 64a7 163d c5a5 cb3c 9507 873d bfda 2b3d
00000280: 824f 5a3d 3822 393d ec02 453b 9a36 a53d
00000290: 1385 813d 3aa2 933d 1b76 abbd 0e36 54bd
000002a0: 85a5 6dbb f06d 0a3d c8db 653d 0edb 7a3d
000002b0: a7b4 3b3d c73a 77bd 8b57 413d 63d0 933d
000002c0: 9113 4b3d 5856 043d 231b c9bc 51de 5f3b
000002d0: b043 38bd f4e7 a23d db58 0dbd 6cf7 113c
000002e0: 27c8 5e3d e443 3dbd 56fa 7ebd becf ebbb
000002f0: de74 8e3d 75d6 a6bc 9f0a 473d 5237 25bd
00000300: a657 0fbd 5f7c 65bc 41be f4ba 1d5b 873b
00000310: ff62 a9bd 4491 173d 4c9b b73d c96c 963d
00000320: a1e1 593d b681 943d 35eb 803d 723c ce3c
00000330: fcf9 603d e64d 00bd 1db6 8c3d 3e7a 1c3d
00000340: e7da 92bb b3b9 a43d cb11 553d f45b 223d
00000350: 2a8a 88bc a214 7ebd b766 ad3d c040 b2bd
00000360: ed2d 84bc de07 cf3c dba1 4ebd 0b73 983c
00000370: 4257 463d 4114 87bc 7747 abbd 4caa e53c
00000380: 6e6e 05bd 5f26 073d 309f 55bc 7d4e 1d3d
00000390: 3333 18bd a4b2 3c3d 3eda 273d 0702 88bd
000003a0: 08b9 53bd e628 943d a49d 26bd 07e5 da3b
000003b0: 0383 96bc e00e 16bd 3acb 723d 260a b73a
000003c0: 4b58 8a3d 0ad2 5c3d 2e91 85bd 538c 773d
000003d0: d03d 7d3c e84e 173d 5c88 3bbd 446a 7c3d
000003e0: dca5 99bd 70b2 9fbc e2df ab3d 905f 2ebb
000003f0: 7b28 02bd 951d 9e3d 24ff fa3b 21bd 8e3d

layers.0.linear.bias f4 [128]
-0.055604782 0.08572558 -0.052433223 0.008939458 -0.05147968 0.0041494803 0.046317592 0.08111588
-0.015577201 0.0031557486 0.004729437 0.002705769 0.07039472 -0.04705151 -0.014489286 0.084407575
0.0773018 -0.0042683063 -0.05811591 -0.060226507 0.06988468 -0.047876257 0.06409266 -0.027449165
0.0045269253 0.03191263 -0.043547742 0.035966747 0.057502896 -0.012953612 -0.038109407 -0.06177272
0.01858338 -0.011410239 0.074958034 0.048089758 0.00080193154 0.009492476 -0.037723016 -0.021587064
0.024332384 0.012896995 -0.08495899 0.009522228 -0.007858053 0.035610486 -0.066110075 -0.0097376965
0.03688066 -0.018955547 0.07069327 0.021613635 -0.026412195 -0.039084606 0.08290938 -0.041746795
0.010689976 -0.020820605 -0.037316404 -0.06036186 0.0051423926 0.028156955 0.062566906 0.06900605
0.0622183 -0.009822032 0.07187293 -0.030473294 0.057261135 0.04425651 0.060921684 -0.021642772
0.052825563 0.08080761 -0.05695054 -0.050950427 -0.017461963 0.034946587 -0.057476345 0.035935685
0.04960316 0.020302424 0.058097042 0.05385182 0.08089667 -0.05251561 0.009479807 -0.0080520725
0.026773436 -0.06303989 0.04309336 -0.03928062 0.04126068 -0.047964856 -0.023761481 -0.08467095
0.023372015 0.040320355 0.055391025 0.019400615 0.07616692 -0.0051634777 0.081987604 0.037634578
0.030679805 0.0074067144 -0.080191195 0.07576415 0.08259886 -0.05467092 0.009621318 0.026641037
0.08366705 0.04391896 -0.043818474 -0.0067863916 0.06969061 -0.05806448 0.052787915 0.041489817
0.0099777635 -0.015529428 -0.07667752 -0.04879704 -0.063457355 -0.056964967 0.021458277 0.021062711
00000000: d7c1 63bd e590 af3d 38c4 56bd ce76 123c
00000010: 5bdc 52bd 5df8 873b 84b7 3d3d 1520 a63d
00000020: 8437 7fbc add0 4e3b 65f9 9a3b 4553 313b
00000030: 1b2b 903d 16b9 40bd 7864 6dbc e1dd ac3d
00000040: 6850 9e3d 26dd 8bbb f30a 6ebd 12b0 76bd
00000050: b31f 8f3d e519 44bd 0343 833d 12dd e0bc
00000060: 9a56 943b d1b6 023d 1e5f 32bd de51 133d
00000070: 2888 6b3d 633b 54bc 9c18 1cbd 6405 7dbd
00000080: 2c3c 983c 03f2 3abc 9983 993d c4f9 443d
00000090: b738 523a 5486 1b3c 7383 1abd 5bd7 b0bc
000000a0: b554 c73c eb4d 533c fbfe adbd 1e03 1c3c
000000b0: 10bf 00bc 4ddc 113d b864 87bd dc8a 1fbc
000000c0: 2d10 173d aa48 9bbc a2c7 903d 140f b13c
000000d0: 635e d8bc 2e17 20bd 65cc a93d b0fe 2abd
000000e0: 0225 2f3c f98f aabc 16d9 18bd ff3d 77bd
000000f0: 8481 a83b 6aa9 e63c 1423 803d 0b53 8d3d
00000100: 9ed8 7e3d 97ec 20bc 1d32 933d 21a3 f9bc
00000110: a78a 6a3d 5046 353d 0489 793d 2f4c b1bc
00000120: 9e5f 583d 767e a53d f844 69bd 65b1 50bd
00000130: 640c 8fbc 2724 0f3d 516c 6bbd 4c31 133d
00000140: af2c 4b3d 4551 a63c 2af7 6d3d ba93 5c3d
00000150: 27ad a53d 9c1a 57bd 3151 1b3c d7ec 03bc
00000160: f753 db3c 0f1b 81bd aa82 303d b7e4 20bd
00000170: f500 293d cc76 44bd 70a7 c2bc f767 adbd
00000180: ab76 bf3c f526 253d b3e1 623d 0aee 9e3c
00000190: 67fd 9b3d 6432 a9bb 1ee9 a73d b726 1a3d
000001a0: 3754 fb3c 06b4 f23b 483b a4bd 3c2a 9b3d
000001b0: 9729 a93d 9dee 5fbd bca2 1d3c 4e3e da3c
000001c0: a159 ab3d 5ee4 333d 007b 33bd 6160 debb
000001d0: f3b9 8e3d 05d5 6dbd 2438 583d 3af1 293d
000001e0: c679 233c 246f 7ebc 1b09 9dbd 68df 47bd
000001f0: eef5 81bd 1954 69bd 45c9 af3c b58b ac3c

layers.0.norm.weight f4 [128]
0.9991141 0.9971086 1.0033731 0.99777526 0.99749416 1.0020535 1.003047 0.9983759
0.99664617 0.99680984 0.997872 0.9981731 0.99736065 0.9971324 0.9989395 1.0023514
0.9978112 0.9978224 1.0009558 0.9988402 0.9986889 0.9970625 0.99962723 1.0028762
1.001656 0.9998284 1.0003732 0.9967577 0.99725586 1.0029111 1.0005099 0.9979715
0.99783343 1.0031557 1.0019845 1.0005792 0.9982671 0.9978131 1.0025635 0.9978021
0.9988453 0.99814683 0.9986642 1.0030491 0.9981106 0.99703765 0.9974701 1.0000522
0.9994379 0.9974896 0.9975841 0.998053 1.0019568 0.9971094 0.99761605 1.002477
0.99802625 0.9977032 0.9968856 1.0007488 0.9997266 1.0032474 1.0011079 1.0012182
0.99957156 1.0031579 1.001886 0.9976603 0.9979026 0.9976041 0.9979627 0.9975696
1.0032243 0.9972467 0.998399 1.0030313 1.0021328 1.0030878 0.9991793 0.997767
0.9981583 0.9977837 0.998034 1.0014036 0.99686354 0.9978765 1.0026405 1.001207
0.9976859 1.0028116 0.9994161 0.99745727 0.99774516 1.0003117 1.0027361 0.9971051
0.9978097 1.0024558 1.0023031 1.0018668 0.99892014 1.0014677 0.99747026 1.0028329
1.0028608 0.9970847 1.0016297 1.0020301 0.99804777 0.9980498 0.99701875 0.9978191
0.9988615 1.0006956 0.99728626 0.99892664 0.9985781 0.9979793 1.0017309 0.9971099
1.0032566 0.9981052 0.997175 0.9966333 1.0007671 0.9974793 0.9979128 0.9975383
00000000: f1c5 7f3f 8242 7f3f 886e 803f 336e 7f3f
00000010: c75b 7f3f 4a43 803f d863 803f 9095 7f3f
00000020: 3424 7f3f ee2e 7f3f 8a74 7f3f 4688 7f3f
00000030: 0753 7f3f 1244 7f3f 80ba 7f3f 0d4d 803f
00000040: 8e70 7f3f 4a71 7f3f 521f 803f feb3 7f3f
00000050: 13aa 7f3f 7d3f 7f3f 92e7 7f3f 3f5e 803f
00000060: 4436 803f c1f4 7f3f 3b0c 803f 832b 7f3f
00000070: 294c 7f3f 645f 803f b510 803f 0f7b 7f3f
00000080: 0372 7f3f 6867 803f 0741 803f fb12 803f
00000090: 6f8e 7f3f ae70 7f3f 0054 803f f56f 7f3f
000000a0: 53b4 7f3f 8d86 7f3f 75a8 7f3f ea63 803f
000000b0: 2d84 7f3f dc3d 7f3f 335a 7f3f b601 803f
000000c0: 2adb 7f3f 7a5b 7f3f ac61 7f3f 6780 7f3f
000000d0: 1f40 803f 9042 7f3f c463 7f3f 2b51 803f
000000e0: a67e 7f3f 7a69 7f3f e533 7f3f 8918 803f
000000f0: 15ee 7f3f 696a 803f 4e24 803f eb27 803f
00000100: ece3 7f3f 7a67 803f cd3d 803f aa66 7f3f
00000110: 8b76 7f3f fb62 7f3f 7c7a 7f3f b960 7f3f
00000120: a769 803f 8f4b 7f3f 1497 7f3f 5463 803f
00000130: e345 803f 2e65 803f 37ca 7f3f a86d 7f3f
00000140: 4d87 7f3f c16e 7f3f 287f 7f3f fe2d 803f
00000150: 7332 7f3f d674 7f3f 8656 803f 8d27 803f
00000160: 5868 7f3f 215c 803f bcd9 7f3f 5c59 7f3f
00000170: 3a6c 7f3f 370a 803f a859 803f 4842 7f3f
00000180: 7570 7f3f 7950 803f 784b 803f 2c3d 803f
00000190: 3bb9 7f3f 1830 803f 365a 7f3f d45c 803f
000001a0: be5d 803f f140 7f3f 6735 803f 8642 803f
000001b0: 0f80 7f3f 3180 7f3f 9f3c 7f3f 1371 7f3f
000001c0: 63b5 7f3f cb16 803f 274e 7f3f a8b9 7f3f
000001d0: d0a2 7f3f 927b 7f3f b838 803f 9842 7f3f
000001e0: b66a 803f d383 7f3f dc46 7f3f 5c23 7f3f
000001f0: 2319 803f ce5a 7f3f 3777 7f3f ac5e 7f3f

layers.0.norm.bias f4 [128]
-0.0026590999 -0.0012644428 0.0031300886 -0.0023819893 0.0015689146 -0.00025213262 0.003327333 -0.0028124992
0.003394217 -0.0030766516 -0.0022095887 -0.00192672 -0.00226103 0.003150417 -0.0021454322 0.0012055383
-0.0021645003 -0.0027769445 0.0017812114 0.0016877365 -0.0008392649 -0.0030085056 -0.0017330374 0.0029453617
0.0015756428 0.00056772836 -0.0010185373 -0.003186407 0.0004300974 -0.0026115533 -0.0006833487 -0.0019086102
0.0016906046 0.0016687419 0.0017698379 0.00087537034 -0.002375451 -0.0020273686 -0.0024009198 -0.0030198768
-0.00014860897 0.0016486055 0.0024725138 -0.0014747 -0.0006467146 -0.0026509273 -0.002987961 -0.0022667747
-0.00086209853 -0.002506682 -0.0025794832 -0.002449467 0.002800585 0.00035964255 -0.0025904616 0.0021557268
-0.002131592 -0.002642313 0.0021510439 -0.001961575 0.0012918556 0.0031676712 -0.0001933587 0.00087396364
-0.0012805237 0.002988384 -0.0018730386 -0.0021816187 -0.0021166652 -0.002451797 -0.0020195765 0.0004074009
0.0028101576 -0.0015596023 -0.0016083191 0.002669378 -0.001545129 0.0027958588 0.00014995564 -0.0020501858
-0.001748253 0.0009414273 -0.0018617254 0.0015759374 -0.0029576828 0.0020667908 0.001134509 -1.5726968e-05
-0.0015383752 -0.0025766066 0.0032408389 -0.0026178192 -0.0017363081 -0.0017504947 -0.00292705 -0.002894759
-0.0021079779 0.00019441704 0.0022749002 -0.0020913654 -0.0017020627 -0.0019604557 -0.0025715027 0.0027342334
0.0028468072 -0.0028931492 -0.002357338 0.0014734523 -0.002111659 6.4098854e-06 -0.002941757 -0.002032951
-0.0014828304 -0.0003780507 -0.0028359934 -0.0011291879 -0.0027503658 -0.0025262365 0.0002825709 -0.0028383879
0.0006162498 -0.0006310297 -0.0028600446 -0.003419085 -0.0016302703 -0.0022623148 0.003244949 -0.0010646547
00000000: 4b44 2ebb a9bb a5ba 2c22 4d3b 261b 1cbb
00000010: 0aa4 cd3a ab30 84b9 620f 5a3b e851 38bb
00000020: 8371 5e3b a6a1 49bb bfce 10bb ff89 fcba
00000030: ca2d 14bb 3a77 4e3b 619a 0cbb 2703 9e3a
00000040: 4ada 0dbb 66fd 35bb 8977 e93a 0a37 dd3a
00000050: 1d02 5cba 592a 45bb 1627 e3ba f806 413b
00000060: cd85 ce3a 9bd3 143a 7180 85ba 0ad3 50bb
00000070: b27e e139 9826 2bbb c122 33ba 552a faba
00000080: 4797 dd3a b0b9 da3a e8f9 e73a 1c79 653a
00000090: 74ad 1bbb 9add 04bb c058 1dbb 20e9 45bb
000000a0: ebd3 1bb9 0516 d83a e609 223b b94a c1ba
000000b0: 4888 29ba 2ebb 2dbb abd1 43bb 2b8e 14bb
000000c0: 74fe 61ba 2547 24bb 8c0c 29bb 3d87 20bb
000000d0: 058a 373b 688e bc39 bcc4 29bb 1847 0d3b
000000e0: 2eb2 0bbb a82a 2dbb 87f8 0c3b c48d 00bb
000000f0: 7b53 a93a b498 4f3b 55c0 4ab9 b51a 653a
00000100: 3fd7 a7ba c4d8 433b bf80 f5ba 7df9 0ebb
00000110: c0b7 0abb 54ae 20bb df5a 04bb 6c98 d539
00000120: 9f2a 383b 926b ccba 3cce d2ba bbf0 2e3b
00000130: ed85 caba ba3a 373b 693d 1d39 695c 06bb
00000140: a325 e5ba 1eca 763a 2305 f4ba af8f ce3a
00000150: afd5 41bb ff72 073b ceb3 943a 68ed 83b7
00000160: 4ea3 c9ba 49dc 28bb 4164 543b b88f 2bbb
00000170: d594 e3ba db70 e5ba c0d3 3fbb ffb5 3dbb
00000180: 0026 0abb 6ddc 4b39 7e16 153b 4a0f 09bb
00000190: bf17 dfba fd7a 00bb a886 28bb d330 333b
000001a0: 8091 3a3b fd9a 3dbb 927d 1abb db20 c13a
000001b0: c263 0abb 7f14 d736 7eca 40bb 423b 05bb
000001c0: 885b c2ba 1b35 c6b9 13dc 39bb 4201 94ba
000001d0: 7b3f 34bb 378f 25bb 0626 9439 3f04 3abb
000001e0: d38b 213a b06b 25ba 966f 3bbb ba12 60bb
000001f0: cbae d5ba 5843 14bb 36a9 543b e28b 8bba

layers.1.linear.weight f4 [128, 128]
0.05733594 -0.05463571 0.06195237 0.057611465 0.08586561 0.08446037 0.04357469 0.06846018
-0.0028369497 -0.046200994 0.08308184 0.057008997 -0.067437574 -0.034218952 -0.06823398 0.06036736
0.054317713 -0.08553631 -0.011184277 -0.050814968 0.024359971 -0.039075483 0.0013602577 0.06868481
-0.028365785 0.020642828 -0.05377668 0.03836469 -0.045197494 0.03798692 0.032742564 -0.057218805
0.07757464 -0.06260228 0.07729666 -0.05188428 -0.037204742 0.045913026 -0.06566309 -0.040290114
-0.02553566 -0.0009906497 0.02385613 -0.059084624 0.04168869 0.066153795 -0.025107048 0.07205596
-0.031434663 0.0009164954 -0.014087091 -0.014121431 0.045937262 -0.052277062 0.040965576 -0.010853729
0.030263226 -0.0449798 -0.01981163 0.063921675 -0.06562649 -0.031043636 -0.07779711 -0.012237188
0.05431897 -0.051449623 -0.07228591 0.037205074 -0.023705898 -0.018568963 -0.05989098 -0.064743385
0.017615292 -0.025529752 -0.02003817 0.06669235 -0.07637347 0.038371697 0.08338487 4.8259382e-05
-0.08487566 0.05121975 0.047582053 0.076691784 -0.043132372 0.084011495 -0.026614549 -0.019918844
0.0384396 0.07210749 0.06756366 0.016096272 -0.061630454 0.04922171 -0.073593415 0.08721768
0.00889493 -0.029315054 -0.010600871 0.032303274 -0.07490415 -0.05204109 -0.06735668 0.08030213
0.024198303 0.03880676 0.06683567 0.033487547 0.022316663 -0.07332419 0.06461941 -0.04232243
-0.0578079 -0.06892763 0.009246729 -0.03052998 -0.010461779 -0.05295555 0.0038000285 0.07589257
-0.022535408 0.00571045 -0.0049447883 -0.0377287 -0.014605242 0.011852304 -0.06550615 0.054071292
-0.022865543 -0.0071503473 0.00741446 -0.07060171 0.03747339 -0.005635279 0.059676323 -0.01344222
0.06754911 -0.058095932 0.08919302 0.0737417 0.025081525 -0.058696307 -0.04139931 -0.012978584
-0.081893705 0.069698654 0.07125186 -0.0043179328 -0.066779114 0.056056928 0.034705505 -0.056498304
-0.0070005613 -0.056155175 0.059470832 0.002414183 -0.05258625 0.08586112 0.011288534 0.009325739
0.05971586 -0.0024262024 -0.0334768 -0.03978822 0.07671415 0.0055234125 0.075687505 0.06206952
0.013318837 0.033373058 -0.0017202956 -0.0866687 -0.03678135 0.067604996 -0.0015734624 0.0030904154
-0.03128683 -0.019730711 -0.06543041 -0.0055684866 0.042038422 0.018541925 0.07659807 -0.003546997
0.025275625 -0.028700458 0.08120233 0.0038946383 -0.011859712 0.082175314 0.04677915 0.025174517
-0.05345057 0.0326169 0.06877208 -0.06542321 0.059234075 -0.07361915 -0.075970635 -0.004847458
-0.07499565 -0.037935104 0.070635185 -0.08217234 -0.05986325 0.013267149 -0.049021177 -0.01653131
-0.026909353 0.043473847 -0.045252115 -0.04276955 0.072825715 0.03500502 -0.08117658 -0.07971603
0.08657522 0.01012837 -0.006270085 0.08090453 -0.062348884 -0.074676834 0.08522837 0.07910778
-0.041065477 0.074186504 0.06485811 -0.031346604 0.041947782 -0.026116349 -0.06862922 -0.045028813
0.0030302317 -0.05208417 0.007843998 -0.01974887 -0.064229734 -0.027097877 -0.013756999 0.01331795
-0.065880045 0.054048944 0.048409555 -0.006928392 0.04206971 -0.08518353 0.07821108 0.07638628
0.04743818 -0.041941117 0.06611865 0.034563407 0.026756343 0.06872505 0.06465896 -0.03765905
00000000: 17d9 6a3d b2c9 5fbd c5c1 7d3d 00fa 6b3d
00000010: 4fda af3d 8ff9 ac3d 607b 323d da34 8c3d
00000020: 1eec 39bb 413d 3dbd d026 aa3d 4482 693d
00000030: b61c 8abd 2c29 0cbd 42be 8bbd c443 773d
00000040: 407c 5e3d a92d afbd 423e 37bc 5b23 50bd
00000050: 908e c73c 9d0d 20bd ad4a b23a 9faa 8c3d
00000060: 5d5f e8bc 261b a93c f044 5cbd 4b24 1d3d
00000070: 0221 39bd 2c98 1b3d 111d 063d 445e 6abd
00000080: 74df 9e3d a035 80bd b64d 9e3d 9c84 54bd
00000090: 0064 18bd 4c0f 3c3d 5f7a 86bd 3f07 25bd
000000a0: 2930 d1bc b0d8 81ba ee6d c33c b802 72bd
000000b0: c3c1 2a3d a47b 873d 4cad cdbc 1392 933d
000000c0: a2c1 00bd f740 703a 8bcd 66bc 935d 67bc
000000d0: b628 3c3d 7920 56bd 85cb 273d d7d3 31bc
000000e0: 96ea f73c bd3c 38bd 004c a2bc 5ee9 823d
000000f0: 2e67 86bd 394f febc 1754 9fbd 7d7e 48bc
00000100: 917d 5e3d d7bc 52bd a30a 94bd 5964 183d
00000110: df32 c2bc f01d 98bc 3f50 75bd 2e98 84bd
00000120: f24d 903c c523 d1bc 1727 a4bc 0096 883d
00000130: b269 9cbd a42b 1d3d b0c5 aa3d 1e6a 4a38
00000140: 4ad3 adbd cdcb 513d 66e5 423d 9510 9d3d
00000150: 92ab 30bd 380e ac3d c106 dabc d82c a3bc
00000160: d872 1d3d 17ad 933d d15e 8a3d 54dc 833c
00000170: 3770 7cbd b49c 493d 25b8 96bd 2f9f b23d
00000180: 0abc 113c 2026 f0bc 47af 2dbc 7050 043d
00000190: 5967 99bd 0a29 55bd 4df2 89bd 7175 a43d
000001a0: 853b c63c d6f3 1e3d 24e1 883d 3d2a 093d
000001b0: 6fd1 b63c fe2a 96bd 2e57 843d 495a 2dbd
000001c0: fac7 6cbd ee29 8dbd 987f 173c 021a fabc
000001d0: e267 2bbc ebe7 58bd e609 793b 906d 9b3d
000001e0: 2d9c b8bc ba1e bb3b e407 a2bb 6989 1abd
000001f0: d34a 6fbc 2b30 423c 1728 86bd dc79 5d3d
00000200: 8550 bbbc 764d eabb 00f5 f23b a197 90bd
00000210: b37d 193d 26a8 b8bb 296f 743d c23c 5cbc
00000220: 3057 8a3d 00f6 6dbd d4aa b63d e305 973d
00000230: c577 cd3c 8a6b 70bd 5392 29bd 20a4 54bc
00000240: e3b7 a7bd 2bbe 8e3d 7fec 913d 727d 8dbb
00000250: 7dc3 88bd f39b 653d 5c27 0e3d c46a 67bd
00000260: f764 e5bb f802 66bd b097 733d 4537 1e3b
00000270: ae64 57bd f4d7 af3d 8bf3 383c fcca 183c
00000280: 9e98 743d ec00 1fbb f81e 09bd f9f8 22bd
00000290: 4f1c 9d3d befd b43b 0d02 9b3d 9c3c 7e3d
000002a0: 4037 5a3c 30b2 083d 8b7b e1ba 5c7f b1bd
000002b0: 0aa8 16bd 7d74 8a3d a33c ceba 9188 4a3b
000002c0: 9e26 00bd 4da2 a1bc 6100 86bd da77 b6bb
000002d0: 7b30 2c3d 3ce5 973c 73df 9c3d bc74 68bb
000002e0: d40e cf3c 391d ebbc 684d a63d 303d 7f3b
000002f0: 3d4f 42bc 884b a83d 7e9b 3f3d ca3a ce3c
00000300: fcee 5abd 4c99 053d 60d8 8c3d 9bfc 85bd
00000310: 6e9f 723d a3c5 96bd 7e96 9bbd 6dd7 9ebb
00000320: 5297 99bd d761 1bbd 2ea9 903d f949 a8bd
00000330: 2b33 75bd 755e 593c 6eca 48bd ab6c 87bc
00000340: 0171 dcbc a211 323d 485a 39bd 202f 2fbd
00000350: a625 953d 6d61 0f3d e83f a6bd 2842 a3bd
00000360: 594e b13d 76f1 253c 4975 cdbb 46b1 a53d
00000370: 8b61 7fbd 2bf0 98bd 368c ae3d 4203 a23d
00000380: 4634 28bd 18ef 973d 54d4 843d 4c65 00bd
00000390: 70d1 2b3d f4f1 d5bc 7a8d 8cbd 2270 38bd
000003a0: da96 463b 3656 55bd 1d84 003c 62c8 a1bc
000003b0: e18a 83bd 5efc ddbc 0965 61bc 8833 5a3c
000003c0: 1eec 86bd 6d62 5d3d 1949 463d 9107 e3bb
000003d0: 4a51 2c3d b474 aebd 212d a03d 6970 9c3d
000003e0: 894e 423d 73ca 2bbd 3769 873d 5c92 0d3d
000003f0: 1e30 db3c b8bf 8c3d eb6b 843d 6040 1abd

layers.1.linear.bias f4 [128]
0.05992994 -0.040999927 0.011976003 -0.070632264 -0.051783916 -0.033665 0.04709861 0.0645536
0.08661633 -0.065535456 -0.041388746 0.02321323 0.027081542 0.0049858894 -0.042882808 0.045553554
0.021875966 -0.014647362 0.073286414 -0.0848488 -0.020742906 0.0045652506 -0.07190284 -0.031168493
0.004852196 -0.020614719 0.0021636274 0.018255867 -0.037683293 0.08800213 -0.025492318 0.03842628
0.06456701 -0.017733077 0.06896249 0.04918587 0.07253394 -0.011285912 0.03652569 0.053422283
0.026380766 0.061204888 -0.018711286 -0.038655613 0.06592737 0.016737547 0.010596078 -0.014459485
-0.0410096 0.030973474 -0.03727582 0.00086093316 -0.060840204 0.016270103 -0.0055308924 -0.07702922
0.042338353 -0.055930216 -0.044736147 -0.043344263 0.028861212 0.0644699 0.0780749 0.01995633
0.08677424 -0.07247655 0.065036066 -0.055528197 0.08042758 -0.01213053 0.020862693 0.07065839
-0.058027923 -0.050136205 0.040441368 -0.07494043 -0.014573766 0.033678316 -0.013997433 -0.020611882
0.031280044 0.044740077 0.06914245 -0.00082088803 0.022760939 -0.01342555 -0.06299994 0.026865272
-0.048897486 0.019854408 -0.05535585 0.045291834 0.007564207 0.04581709 0.04031749 -0.035155304
0.07267401 0.034580566 -0.020820368 0.01928314 -0.08685837 -0.07144844 -0.008893988 -0.08459339
-0.033770718 0.060592804 -0.037339114 -0.0028150938 0.03217565 0.08472782 0.013183475 -0.084103435
0.084176116 0.0118241515 0.084508084 0.055709206 -0.080852404 0.06228504 0.03599314 -0.0034532947
0.084371716 0.05163882 -0.07458594 -0.083706476 -0.05658887 -0.043028887 0.011450279 0.014248405
00000000: 1979 753d 8aef 27bd ff36 443c a6a7 90bd
00000010: 5f1b 54bd 50e4 09bd 79ea 403d ae34 843d
00000020: e763 b13d 7437 86bd 3f87 29bd ac29 be3c
00000030: 1cda dd3c ac60 a33b e2a5 2fbd 5d96 3a3d
00000040: 3a35 b33c 7dfb 6fbc 3017 963d 35c5 adbd
00000050: 07ed a9bc 1998 953b cc41 93bd 1155 ffbc
00000060: 2cff 9e3b 33e0 a8bc a5cb 0d3b 548d 953c
00000070: cc59 1abd 763a b43d 44d5 d0bc e064 1d3d
00000080: b53b 843d f544 91bc 353c 8d3d 1f77 493d
00000090: ad8c 943d 8ce8 38bc f69b 153d 53d1 5a3d
000000a0: 7a1c d83c fab1 7a3d 6948 99bc 5955 1ebd
000000b0: ee04 873d 2e1d 893c 2c9b 2d3c 7ae7 6cbc
000000c0: aff9 27bd 15bc fd3c 88ae 18bd 3fb0 613a
000000d0: 9433 79bd e148 853c 7d3c b5bb 7fc1 9dbd
000000e0: fb6a 2d3d 1517 65bd 403d 37bd c189 31bd
000000f0: 596e ec3c cc08 843d bce5 9f3d 757b a33c
00000100: b1b6 b13d 966e 94bd a131 853d 8971 63bd
00000110: 37b7 a43d 21bf 46bc 3de8 aa3c 59b5 903d
00000120: b0ae 6dbd 9f5b 4dbd d9a5 253d 5e7a 99bd
00000130: cec6 6ebc 46f2 093d 7d55 65bc 40da a8bc
00000140: 811f 003d 5f41 373d 8f9a 8d3d dd30 57ba
00000150: 2675 ba3c d7f6 5bbc 1d06 81bd 8f14 dc3c
00000160: bb48 48bd b6a5 a23c d1bc 62bd ee83 393d
00000170: 2bdd f73b b3aa 3b3d f423 253d 02ff 0fbd
00000180: 1dd6 943d 5aa4 0d3d 7a8f aabc adf7 9d3c
00000190: cde2 b1bd 8f53 92bd 17b8 11bc 4d3f adbd
000001a0: 2a53 0abd 2930 783d e6f0 18bd 707d 38bb
000001b0: 9dca 033d c785 ad3d 80ff 573c 6c3e acbd
000001c0: 8764 ac3d 16ba 413c 9312 ad3d 562f 643d
000001d0: f295 a5bd 991e 7f3d 8b6d 133d ac50 62bb
000001e0: 14cb ac3d 3a83 533d 83c0 98bd 4d6e abbd
000001f0: bbc9 67bd 0f3f 30bd f399 3b3c 2472 693c

layers.1.norm.weight f4 [128]
1.0031558 0.9973816 0.99681437 1.0018816 1.0021147 0.9972723 0.9972813 0.9983683
1.0034424 0.9968022 0.99772745 0.9981391 0.99884146 1.0028862 1.0017056 0.99861515
0.9981065 1.0002803 0.99886364 1.0013971 1.0009552 1.0028634 1.0028285 0.9998529
0.9980269 0.9975041 1.0012147 1.0026959 0.99657005 1.0013872 1.0033318 1.0003568
0.99719864 1.0024203 0.9968895 0.99892443 1.0021532 1.001694 0.9976847 1.0022453
1.0026408 1.0025996 1.0029123 1.0009716 1.0005898 1.0029093 0.99734277 0.99676824
0.9975491 1.0024453 0.9971406 0.99938715 0.9990036 0.9977736 1.0007133 0.99716157
1.0019423 1.0008352 1.0015053 0.9975139 0.99943584 0.9972256 1.002439 1.0032686
0.998719 0.9965899 0.9979312 1.0017681 1.0013775 0.9978894 1.0012616 0.9978583
1.0031084 1.0029203 0.99831283 0.9974915 1.000624 1.0002223 0.99849844 0.9972098
0.99906737 1.003172 0.99775064 1.0024817 1.0023936 0.9973129 1.0032831 0.99787486
0.99744534 0.9977678 1.0033334 1.001005 0.99700284 0.99771017 1.0014783 1.000349
0.9978829 0.9967309 1.0012001 0.9976213 0.99780935 0.9995784 1.002968 0.99755865
1.0032336 1.002827 1.0026406 1.0003192 0.9968541 1.0010303 0.9978654 1.003059
0.99846876 1.0014255 0.9968703 0.9998053 1.0012137 1.0028913 0.9975225 0.998207
0.9988482 0.9974038 1.0026383 0.9982413 0.99769574 0.9977665 0.9980023 1.0027409
00000000: 6967 803f 6754 7f3f 3a2f 7f3f a83d 803f
00000010: 4b45 803f 3d4d 7f3f d44d 7f3f 1195 7f3f
00000020: cd70 803f 6e2e 7f3f 116b 7f3f 0b86 7f3f
00000030: 13b4 7f3f 935e 803f e437 803f 3ea5 7f3f
00000040: e883 7f3f 2f09 803f 87b5 7f3f c82d 803f
00000050: 4d1f 803f d45d 803f af5c 803f 5cf6 7f3f
00000060: b17e 7f3f 6e5c 7f3f ce27 803f 5758 803f
00000070: 371f 7f3f 752d 803f 2d6d 803f b10b 803f
00000080: 6948 7f3f 4f4f 803f 2634 7f3f 83b9 7f3f
00000090: 8e46 803f 8237 803f 4468 7f3f 9349 803f
000000a0: 8956 803f 2f55 803f 6e5f 803f d61f 803f
000000b0: 5413 803f 555f 803f db51 7f3f 342c 7f3f
000000c0: 615f 7f3f 2150 803f 9b44 7f3f d6d7 7f3f
000000d0: b3be 7f3f 176e 7f3f 6017 803f fb45 7f3f
000000e0: a53f 803f 5e1b 803f 5331 803f 125d 7f3f
000000f0: 07db 7f3f 2d4a 7f3f ec4f 803f 1b6b 803f
00000100: 0cac 7f3f 8420 7f3f 6b78 7f3f f039 803f
00000110: 232d 803f ae75 7f3f 5729 803f a473 7f3f
00000120: db65 803f b15f 803f 6e91 7f3f 9a5b 7f3f
00000130: 7214 803f 4907 803f 989d 7f3f 2449 7f3f
00000140: e1c2 7f3f f167 803f 966c 7f3f 5251 803f
00000150: 6f4e 803f e64f 7f3f 956b 803f ba74 7f3f
00000160: 9458 7f3f b66d 7f3f 3b6d 803f ef20 803f
00000170: 943b 7f3f ef69 7f3f 7130 803f 700b 803f
00000180: 4175 7f3f c229 7f3f 5327 803f 1c64 7f3f
00000190: 6f70 7f3f 5fe4 7f3f 4161 803f 0160 7f3f
000001a0: f569 803f a35c 803f 8756 803f 760a 803f
000001b0: d531 7f3f c321 803f 1b74 7f3f 3d64 803f
000001c0: a69b 7f3f b62e 803f e432 7f3f 3df3 7f3f
000001d0: c527 803f be5e 803f a25d 7f3f 7e8a 7f3f
000001e0: 84b4 7f3f db55 7f3f 7456 803f be8c 7f3f
000001f0: fd68 7f3f a06d 7f3f 147d 7f3f d059 803f

layers.1.norm.bias f4 [128]
0.0029106278 -0.001196802 0.0032989525 -0.001880494 0.00043263417 -0.0028324542 0.0033684024 -0.0024239146
0.0020948583 -0.0032180063 -0.0024259666 -0.0018904097 -0.0017885097 0.0025317413 -0.0026301222 -0.0015536911
-0.0020434652 -0.0024621002 0.0025376473 0.0016487242 -0.0027786558 -0.0027870105 0.0020067908 -0.0014935959
-0.0020553097 -0.0027894625 0.001385622 0.002639952 0.0011402892 0.0015742616 0.0027589838 -0.0007095332
-0.0029480504 -0.002357766 -0.0007993168 0.0003985406 -0.0022814793 -0.0006846111 -0.0024099753 0.0020941088
0.0022312603 -0.0016897708 0.0025300882 -0.0026183368 0.0013588937 -0.0027429988 -0.0023388711 -0.00295248
-0.0031195844 0.0022099018 -0.0029230819 -0.0023898901 2.2251908e-05 -0.0009933175 0.0021952074 0.002911105
-5.6316425e-05 -0.0014840922 0.0021527465 -0.00220822 0.0013435434 0.0029830341 0.001921125 0.0016470796
-0.0014317962 0.002851627 -0.0016381921 -0.001900838 -0.0016399581 -0.0023305346 -0.0017138782 -0.0021453262
0.0022615078 -0.002624889 -0.0026433154 -0.0015994912 -0.0002234186 0.001664395 0.00042806673 -0.0028600758
-0.0007648169 0.0033825107 -0.0022247615 -0.00017661005 0.0014974544 -0.0027287025 -0.003056269 -0.0016735321
0.0029310873 -0.001633005 0.0020823544 -0.001374993 -0.0003813625 -0.0022422404 0.0025646228 -0.00036745326
-0.0023137338 -0.002023812 0.0014894109 -0.0023363507 -0.0023117566 -0.00041210675 -0.0024953294 0.0024644318
0.0027639435 -0.0028803968 -0.0023443128 0.0002305585 0.0031246368 0.0014500495 -0.0028374149 -0.0026661367
-0.0016251785 0.0018530106 -0.0029765118 -0.00026212752 0.000980015 -0.0024620239 -0.0024794133 -0.002246063
0.00069081987 -0.0031598334 0.0025535906 -0.0027013982 -0.0026598906 -0.0023645326 -0.0012870961 -0.0012105366
00000000: 3bc0 3e3b 03de 9cba 3d33 583b e87a f6ba
00000010: 2dd3 e239 b2a0 39bb 6ac0 5c3b 8ada 1ebb
00000020: e449 093b 30e5 52bb f7fc 1ebb a0c7 f7ba
00000030: 6d6c eaba 92eb 253b 215e 2cbb 39a5 cbba
00000040: a8eb 05bb 305b 21bb a84e 263b 011a d83a
00000050: 1c1a 36bb 47a6 36bb 5d84 033b c3c4 c3ba
00000060: 60b2 06bb 6acf 36bb c29d b53a 0c03 2d3b
00000070: c275 953a 7457 ce3a 11d0 343b f8ff 39ba
00000080: 1434 41bb c084 1abb 3e89 51ba 37f3 d039
00000090: df84 15bb 7977 33ba adf0 1dbb 513d 093b
000000a0: 563a 123b 4d7b ddba d6cf 253b 6798 2bbb
000000b0: e81c b23a e2c3 33bb bf47 19bb 657e 41bb
000000c0: f171 4cbb 00d4 103b 2d91 3fbb b49f 1cbb
000000d0: 9ca9 ba37 3432 82ba 78dd 0f3b 3dc8 3e3b
000000e0: 4d35 6cb8 df85 c2ba 1815 0d3b c9b7 10bb
000000f0: d619 b03a 027f 433b 42ce fb3a d2e2 d73a
00000100: 1cab bbba 5de2 3a3b 9bb8 d6ba 8a25 f9ba
00000110: ddf3 d6ba e2bb 18bb 36a4 e0ba 9a98 0cbb
00000120: ce35 143b 5406 2cbb 793b 2dbb 05a6 d1ba
00000130: 7945 6ab9 d427 da3a 256e e039 1c70 3bbb
00000140: fe7d 48ba 1dad 5d3b 4ecd 11bb 6630 39b9
00000150: 3b46 c43a 08d4 32bb af4b 48bb 6b5a dbba
00000160: 7c17 403b 8e0a d6ba 1c78 083b 1c39 b4ba
00000170: 9cf1 c7b9 8df2 12bb 3b13 283b bea6 c0b9
00000180: 03a2 17bb eea1 04bb 5638 c33a 761d 19bb
00000190: d780 17bb 0810 d8b9 ae88 23bb 4e82 213b
000001a0: 4723 353b 0ac5 3cbb 0ba3 19bb 13c2 7139
000001b0: b5c6 4c3b 960f be3a ecf3 39bb 5aba 2ebb
000001c0: f103 d5ba b8e0 f23a 9511 43bb 296e 89b9
000001d0: d973 803a e859 21bb a77d 22bb af32 13bb
000001e0: 2318 353a 3515 4fbb 245a 273b f109 31bb
000001f0: 8f51 2ebb 46f6 1abb c7b3 a8ba deaa 9eba
